{
  "nodes": [
    {
      "op": "null", 
      "name": "0", 
      "inputs": []
    }, 
    {
      "op": "null", 
      "name": "1", 
      "inputs": []
    }, 
    {
      "op": "null", 
      "name": "batch_norm0_gamma_mul_div_expand", 
      "inputs": []
    }, 
    {
      "op": "null", 
      "name": "batch_norm0_add_beta_expand", 
      "inputs": []
    }, 
    {
      "op": "tvm_op", 
      "name": "relu0", 
      "attrs": {
        "flatten_data": "0", 
        "func_name": "fuse_conv2d_broadcast_mul_broadcast_add_relu", 
        "num_inputs": "4", 
        "num_outputs": "1"
      }, 
      "inputs": [[0, 0, 0], [1, 0, 0], [2, 0, 0], [3, 0, 0]]
    }, 
    {
      "op": "null", 
      "name": "batch_norm1_gamma_mul_div_expand", 
      "inputs": []
    }, 
    {
      "op": "null", 
      "name": "batch_norm1_add_beta_expand", 
      "inputs": []
    }, 
    {
      "op": "tvm_op", 
      "name": "batch_norm1_out", 
      "attrs": {
        "flatten_data": "0", 
        "func_name": "fuse_broadcast_mul_broadcast_add", 
        "num_inputs": "3", 
        "num_outputs": "1"
      }, 
      "inputs": [[4, 0, 0], [5, 0, 0], [6, 0, 0]]
    }, 
    {
      "op": "null", 
      "name": "10", 
      "inputs": []
    }, 
    {
      "op": "null", 
      "name": "batch_norm2_gamma_mul_div_expand", 
      "inputs": []
    }, 
    {
      "op": "null", 
      "name": "batch_norm2_add_beta_expand", 
      "inputs": []
    }, 
    {
      "op": "tvm_op", 
      "name": "relu1", 
      "attrs": {
        "flatten_data": "0", 
        "func_name": "fuse_conv2d_broadcast_mul_broadcast_add_relu_1", 
        "num_inputs": "4", 
        "num_outputs": "1"
      }, 
      "inputs": [[7, 0, 0], [8, 0, 0], [9, 0, 0], [10, 0, 0]]
    }, 
    {
      "op": "null", 
      "name": "15", 
      "inputs": []
    }, 
    {
      "op": "null", 
      "name": "batch_norm3_gamma_mul_div_expand", 
      "inputs": []
    }, 
    {
      "op": "null", 
      "name": "batch_norm3_add_beta_expand", 
      "inputs": []
    }, 
    {
      "op": "tvm_op", 
      "name": "batch_norm3_out", 
      "attrs": {
        "flatten_data": "0", 
        "func_name": "fuse_conv2d_broadcast_mul_broadcast_add", 
        "num_inputs": "4", 
        "num_outputs": "1"
      }, 
      "inputs": [[11, 0, 0], [12, 0, 0], [13, 0, 0], [14, 0, 0]]
    }, 
    {
      "op": "tvm_op", 
      "name": "avg_pool2d0", 
      "attrs": {
        "flatten_data": "0", 
        "func_name": "fuse_avg_pool2d", 
        "num_inputs": "1", 
        "num_outputs": "1"
      }, 
      "inputs": [[15, 0, 0]]
    }, 
    {
      "op": "tvm_op", 
      "name": "__mul_scalar__0", 
      "attrs": {
        "flatten_data": "0", 
        "func_name": "fuse_flatten_flatten___mul_scalar__", 
        "num_inputs": "1", 
        "num_outputs": "1"
      }, 
      "inputs": [[16, 0, 0]]
    }, 
    {
      "op": "null", 
      "name": "30", 
      "inputs": []
    }, 
    {
      "op": "null", 
      "name": "__mul_scalar__1", 
      "inputs": []
    }, 
    {
      "op": "tvm_op", 
      "name": "relu2", 
      "attrs": {
        "flatten_data": "0", 
        "func_name": "fuse_dense_relu", 
        "num_inputs": "3", 
        "num_outputs": "1"
      }, 
      "inputs": [[17, 0, 0], [18, 0, 0], [19, 0, 0]]
    }, 
    {
      "op": "tvm_op", 
      "name": "__mul_scalar__2", 
      "attrs": {
        "flatten_data": "0", 
        "func_name": "fuse_flatten___mul_scalar__", 
        "num_inputs": "1", 
        "num_outputs": "1"
      }, 
      "inputs": [[20, 0, 0]]
    }, 
    {
      "op": "null", 
      "name": "32", 
      "inputs": []
    }, 
    {
      "op": "null", 
      "name": "__mul_scalar__3", 
      "inputs": []
    }, 
    {
      "op": "tvm_op", 
      "name": "sigmoid0", 
      "attrs": {
        "flatten_data": "0", 
        "func_name": "fuse_dense_sigmoid", 
        "num_inputs": "3", 
        "num_outputs": "1"
      }, 
      "inputs": [[21, 0, 0], [22, 0, 0], [23, 0, 0]]
    }, 
    {
      "op": "null", 
      "name": "25", 
      "inputs": []
    }, 
    {
      "op": "null", 
      "name": "batch_norm4_gamma_mul_div_expand", 
      "inputs": []
    }, 
    {
      "op": "null", 
      "name": "batch_norm4_add_beta_expand", 
      "inputs": []
    }, 
    {
      "op": "tvm_op", 
      "name": "elemwise_add0", 
      "attrs": {
        "flatten_data": "0", 
        "func_name": "fuse_reshape_broadcast_mul_conv2d_broadcast_mul_broadcast_add_elemwise_add", 
        "num_inputs": "6", 
        "num_outputs": "1"
      }, 
      "inputs": [[15, 0, 0], [24, 0, 0], [4, 0, 0], [25, 0, 0], [26, 0, 0], [27, 0, 0]]
    }, 
    {
      "op": "null", 
      "name": "batch_norm5_gamma_mul_div_expand", 
      "inputs": []
    }, 
    {
      "op": "null", 
      "name": "batch_norm5_add_beta_expand", 
      "inputs": []
    }, 
    {
      "op": "tvm_op", 
      "name": "batch_norm5_out", 
      "attrs": {
        "flatten_data": "0", 
        "func_name": "fuse_broadcast_mul_broadcast_add_1", 
        "num_inputs": "3", 
        "num_outputs": "1"
      }, 
      "inputs": [[28, 0, 0], [29, 0, 0], [30, 0, 0]]
    }, 
    {
      "op": "null", 
      "name": "38", 
      "inputs": []
    }, 
    {
      "op": "null", 
      "name": "batch_norm6_gamma_mul_div_expand", 
      "inputs": []
    }, 
    {
      "op": "null", 
      "name": "batch_norm6_add_beta_expand", 
      "inputs": []
    }, 
    {
      "op": "tvm_op", 
      "name": "relu3", 
      "attrs": {
        "flatten_data": "0", 
        "func_name": "fuse_conv2d_broadcast_mul_broadcast_add_relu_2", 
        "num_inputs": "4", 
        "num_outputs": "1"
      }, 
      "inputs": [[31, 0, 0], [32, 0, 0], [33, 0, 0], [34, 0, 0]]
    }, 
    {
      "op": "null", 
      "name": "43", 
      "inputs": []
    }, 
    {
      "op": "null", 
      "name": "batch_norm7_gamma_mul_div_expand", 
      "inputs": []
    }, 
    {
      "op": "null", 
      "name": "batch_norm7_add_beta_expand", 
      "inputs": []
    }, 
    {
      "op": "tvm_op", 
      "name": "batch_norm7_out", 
      "attrs": {
        "flatten_data": "0", 
        "func_name": "fuse_conv2d_broadcast_mul_broadcast_add_1", 
        "num_inputs": "4", 
        "num_outputs": "1"
      }, 
      "inputs": [[35, 0, 0], [36, 0, 0], [37, 0, 0], [38, 0, 0]]
    }, 
    {
      "op": "tvm_op", 
      "name": "avg_pool2d1", 
      "attrs": {
        "flatten_data": "0", 
        "func_name": "fuse_avg_pool2d", 
        "num_inputs": "1", 
        "num_outputs": "1"
      }, 
      "inputs": [[39, 0, 0]]
    }, 
    {
      "op": "tvm_op", 
      "name": "__mul_scalar__4", 
      "attrs": {
        "flatten_data": "0", 
        "func_name": "fuse_flatten_flatten___mul_scalar__", 
        "num_inputs": "1", 
        "num_outputs": "1"
      }, 
      "inputs": [[40, 0, 0]]
    }, 
    {
      "op": "null", 
      "name": "53", 
      "inputs": []
    }, 
    {
      "op": "null", 
      "name": "__mul_scalar__5", 
      "inputs": []
    }, 
    {
      "op": "tvm_op", 
      "name": "relu4", 
      "attrs": {
        "flatten_data": "0", 
        "func_name": "fuse_dense_relu", 
        "num_inputs": "3", 
        "num_outputs": "1"
      }, 
      "inputs": [[41, 0, 0], [42, 0, 0], [43, 0, 0]]
    }, 
    {
      "op": "tvm_op", 
      "name": "__mul_scalar__6", 
      "attrs": {
        "flatten_data": "0", 
        "func_name": "fuse_flatten___mul_scalar__", 
        "num_inputs": "1", 
        "num_outputs": "1"
      }, 
      "inputs": [[44, 0, 0]]
    }, 
    {
      "op": "null", 
      "name": "55", 
      "inputs": []
    }, 
    {
      "op": "null", 
      "name": "__mul_scalar__7", 
      "inputs": []
    }, 
    {
      "op": "tvm_op", 
      "name": "sigmoid1", 
      "attrs": {
        "flatten_data": "0", 
        "func_name": "fuse_dense_sigmoid", 
        "num_inputs": "3", 
        "num_outputs": "1"
      }, 
      "inputs": [[45, 0, 0], [46, 0, 0], [47, 0, 0]]
    }, 
    {
      "op": "tvm_op", 
      "name": "elemwise_add1", 
      "attrs": {
        "flatten_data": "0", 
        "func_name": "fuse_reshape_broadcast_mul_elemwise_add", 
        "num_inputs": "3", 
        "num_outputs": "1"
      }, 
      "inputs": [[39, 0, 0], [48, 0, 0], [28, 0, 0]]
    }, 
    {
      "op": "null", 
      "name": "batch_norm8_gamma_mul_div_expand", 
      "inputs": []
    }, 
    {
      "op": "null", 
      "name": "batch_norm8_add_beta_expand", 
      "inputs": []
    }, 
    {
      "op": "tvm_op", 
      "name": "batch_norm8_out", 
      "attrs": {
        "flatten_data": "0", 
        "func_name": "fuse_broadcast_mul_broadcast_add_1", 
        "num_inputs": "3", 
        "num_outputs": "1"
      }, 
      "inputs": [[49, 0, 0], [50, 0, 0], [51, 0, 0]]
    }, 
    {
      "op": "null", 
      "name": "61", 
      "inputs": []
    }, 
    {
      "op": "null", 
      "name": "batch_norm9_gamma_mul_div_expand", 
      "inputs": []
    }, 
    {
      "op": "null", 
      "name": "batch_norm9_add_beta_expand", 
      "inputs": []
    }, 
    {
      "op": "tvm_op", 
      "name": "relu5", 
      "attrs": {
        "flatten_data": "0", 
        "func_name": "fuse_conv2d_broadcast_mul_broadcast_add_relu_2", 
        "num_inputs": "4", 
        "num_outputs": "1"
      }, 
      "inputs": [[52, 0, 0], [53, 0, 0], [54, 0, 0], [55, 0, 0]]
    }, 
    {
      "op": "null", 
      "name": "66", 
      "inputs": []
    }, 
    {
      "op": "null", 
      "name": "batch_norm10_gamma_mul_div_expand", 
      "inputs": []
    }, 
    {
      "op": "null", 
      "name": "batch_norm10_add_beta_expand", 
      "inputs": []
    }, 
    {
      "op": "tvm_op", 
      "name": "batch_norm10_out", 
      "attrs": {
        "flatten_data": "0", 
        "func_name": "fuse_conv2d_broadcast_mul_broadcast_add_1", 
        "num_inputs": "4", 
        "num_outputs": "1"
      }, 
      "inputs": [[56, 0, 0], [57, 0, 0], [58, 0, 0], [59, 0, 0]]
    }, 
    {
      "op": "tvm_op", 
      "name": "avg_pool2d2", 
      "attrs": {
        "flatten_data": "0", 
        "func_name": "fuse_avg_pool2d", 
        "num_inputs": "1", 
        "num_outputs": "1"
      }, 
      "inputs": [[60, 0, 0]]
    }, 
    {
      "op": "tvm_op", 
      "name": "__mul_scalar__8", 
      "attrs": {
        "flatten_data": "0", 
        "func_name": "fuse_flatten_flatten___mul_scalar__", 
        "num_inputs": "1", 
        "num_outputs": "1"
      }, 
      "inputs": [[61, 0, 0]]
    }, 
    {
      "op": "null", 
      "name": "76", 
      "inputs": []
    }, 
    {
      "op": "null", 
      "name": "__mul_scalar__9", 
      "inputs": []
    }, 
    {
      "op": "tvm_op", 
      "name": "relu6", 
      "attrs": {
        "flatten_data": "0", 
        "func_name": "fuse_dense_relu", 
        "num_inputs": "3", 
        "num_outputs": "1"
      }, 
      "inputs": [[62, 0, 0], [63, 0, 0], [64, 0, 0]]
    }, 
    {
      "op": "tvm_op", 
      "name": "__mul_scalar__10", 
      "attrs": {
        "flatten_data": "0", 
        "func_name": "fuse_flatten___mul_scalar__", 
        "num_inputs": "1", 
        "num_outputs": "1"
      }, 
      "inputs": [[65, 0, 0]]
    }, 
    {
      "op": "null", 
      "name": "78", 
      "inputs": []
    }, 
    {
      "op": "null", 
      "name": "__mul_scalar__11", 
      "inputs": []
    }, 
    {
      "op": "tvm_op", 
      "name": "sigmoid2", 
      "attrs": {
        "flatten_data": "0", 
        "func_name": "fuse_dense_sigmoid", 
        "num_inputs": "3", 
        "num_outputs": "1"
      }, 
      "inputs": [[66, 0, 0], [67, 0, 0], [68, 0, 0]]
    }, 
    {
      "op": "tvm_op", 
      "name": "elemwise_add2", 
      "attrs": {
        "flatten_data": "0", 
        "func_name": "fuse_reshape_broadcast_mul_elemwise_add", 
        "num_inputs": "3", 
        "num_outputs": "1"
      }, 
      "inputs": [[60, 0, 0], [69, 0, 0], [49, 0, 0]]
    }, 
    {
      "op": "null", 
      "name": "batch_norm11_gamma_mul_div_expand", 
      "inputs": []
    }, 
    {
      "op": "null", 
      "name": "batch_norm11_add_beta_expand", 
      "inputs": []
    }, 
    {
      "op": "tvm_op", 
      "name": "batch_norm11_out", 
      "attrs": {
        "flatten_data": "0", 
        "func_name": "fuse_broadcast_mul_broadcast_add_1", 
        "num_inputs": "3", 
        "num_outputs": "1"
      }, 
      "inputs": [[70, 0, 0], [71, 0, 0], [72, 0, 0]]
    }, 
    {
      "op": "null", 
      "name": "84", 
      "inputs": []
    }, 
    {
      "op": "null", 
      "name": "batch_norm12_gamma_mul_div_expand", 
      "inputs": []
    }, 
    {
      "op": "null", 
      "name": "batch_norm12_add_beta_expand", 
      "inputs": []
    }, 
    {
      "op": "tvm_op", 
      "name": "relu7", 
      "attrs": {
        "flatten_data": "0", 
        "func_name": "fuse_conv2d_broadcast_mul_broadcast_add_relu_3", 
        "num_inputs": "4", 
        "num_outputs": "1"
      }, 
      "inputs": [[73, 0, 0], [74, 0, 0], [75, 0, 0], [76, 0, 0]]
    }, 
    {
      "op": "null", 
      "name": "89", 
      "inputs": []
    }, 
    {
      "op": "null", 
      "name": "batch_norm13_gamma_mul_div_expand", 
      "inputs": []
    }, 
    {
      "op": "null", 
      "name": "batch_norm13_add_beta_expand", 
      "inputs": []
    }, 
    {
      "op": "tvm_op", 
      "name": "batch_norm13_out", 
      "attrs": {
        "flatten_data": "0", 
        "func_name": "fuse_conv2d_broadcast_mul_broadcast_add_2", 
        "num_inputs": "4", 
        "num_outputs": "1"
      }, 
      "inputs": [[77, 0, 0], [78, 0, 0], [79, 0, 0], [80, 0, 0]]
    }, 
    {
      "op": "tvm_op", 
      "name": "avg_pool2d3", 
      "attrs": {
        "flatten_data": "0", 
        "func_name": "fuse_avg_pool2d_1", 
        "num_inputs": "1", 
        "num_outputs": "1"
      }, 
      "inputs": [[81, 0, 0]]
    }, 
    {
      "op": "tvm_op", 
      "name": "__mul_scalar__12", 
      "attrs": {
        "flatten_data": "0", 
        "func_name": "fuse_flatten_flatten___mul_scalar___1", 
        "num_inputs": "1", 
        "num_outputs": "1"
      }, 
      "inputs": [[82, 0, 0]]
    }, 
    {
      "op": "null", 
      "name": "104", 
      "inputs": []
    }, 
    {
      "op": "null", 
      "name": "__mul_scalar__13", 
      "inputs": []
    }, 
    {
      "op": "tvm_op", 
      "name": "relu8", 
      "attrs": {
        "flatten_data": "0", 
        "func_name": "fuse_dense_relu_1", 
        "num_inputs": "3", 
        "num_outputs": "1"
      }, 
      "inputs": [[83, 0, 0], [84, 0, 0], [85, 0, 0]]
    }, 
    {
      "op": "tvm_op", 
      "name": "__mul_scalar__14", 
      "attrs": {
        "flatten_data": "0", 
        "func_name": "fuse_flatten___mul_scalar___1", 
        "num_inputs": "1", 
        "num_outputs": "1"
      }, 
      "inputs": [[86, 0, 0]]
    }, 
    {
      "op": "null", 
      "name": "106", 
      "inputs": []
    }, 
    {
      "op": "null", 
      "name": "__mul_scalar__15", 
      "inputs": []
    }, 
    {
      "op": "tvm_op", 
      "name": "sigmoid3", 
      "attrs": {
        "flatten_data": "0", 
        "func_name": "fuse_dense_sigmoid_1", 
        "num_inputs": "3", 
        "num_outputs": "1"
      }, 
      "inputs": [[87, 0, 0], [88, 0, 0], [89, 0, 0]]
    }, 
    {
      "op": "null", 
      "name": "99", 
      "inputs": []
    }, 
    {
      "op": "null", 
      "name": "batch_norm14_gamma_mul_div_expand", 
      "inputs": []
    }, 
    {
      "op": "null", 
      "name": "batch_norm14_add_beta_expand", 
      "inputs": []
    }, 
    {
      "op": "tvm_op", 
      "name": "elemwise_add3", 
      "attrs": {
        "flatten_data": "0", 
        "func_name": "fuse_reshape_broadcast_mul_conv2d_broadcast_mul_broadcast_add_elemwise_add_1", 
        "num_inputs": "6", 
        "num_outputs": "1"
      }, 
      "inputs": [[81, 0, 0], [90, 0, 0], [70, 0, 0], [91, 0, 0], [92, 0, 0], [93, 0, 0]]
    }, 
    {
      "op": "null", 
      "name": "batch_norm15_gamma_mul_div_expand", 
      "inputs": []
    }, 
    {
      "op": "null", 
      "name": "batch_norm15_add_beta_expand", 
      "inputs": []
    }, 
    {
      "op": "tvm_op", 
      "name": "batch_norm15_out", 
      "attrs": {
        "flatten_data": "0", 
        "func_name": "fuse_broadcast_mul_broadcast_add_2", 
        "num_inputs": "3", 
        "num_outputs": "1"
      }, 
      "inputs": [[94, 0, 0], [95, 0, 0], [96, 0, 0]]
    }, 
    {
      "op": "null", 
      "name": "112", 
      "inputs": []
    }, 
    {
      "op": "null", 
      "name": "batch_norm16_gamma_mul_div_expand", 
      "inputs": []
    }, 
    {
      "op": "null", 
      "name": "batch_norm16_add_beta_expand", 
      "inputs": []
    }, 
    {
      "op": "tvm_op", 
      "name": "relu9", 
      "attrs": {
        "flatten_data": "0", 
        "func_name": "fuse_conv2d_broadcast_mul_broadcast_add_relu_4", 
        "num_inputs": "4", 
        "num_outputs": "1"
      }, 
      "inputs": [[97, 0, 0], [98, 0, 0], [99, 0, 0], [100, 0, 0]]
    }, 
    {
      "op": "null", 
      "name": "117", 
      "inputs": []
    }, 
    {
      "op": "null", 
      "name": "batch_norm17_gamma_mul_div_expand", 
      "inputs": []
    }, 
    {
      "op": "null", 
      "name": "batch_norm17_add_beta_expand", 
      "inputs": []
    }, 
    {
      "op": "tvm_op", 
      "name": "batch_norm17_out", 
      "attrs": {
        "flatten_data": "0", 
        "func_name": "fuse_conv2d_broadcast_mul_broadcast_add_3", 
        "num_inputs": "4", 
        "num_outputs": "1"
      }, 
      "inputs": [[101, 0, 0], [102, 0, 0], [103, 0, 0], [104, 0, 0]]
    }, 
    {
      "op": "tvm_op", 
      "name": "avg_pool2d4", 
      "attrs": {
        "flatten_data": "0", 
        "func_name": "fuse_avg_pool2d_1", 
        "num_inputs": "1", 
        "num_outputs": "1"
      }, 
      "inputs": [[105, 0, 0]]
    }, 
    {
      "op": "tvm_op", 
      "name": "__mul_scalar__16", 
      "attrs": {
        "flatten_data": "0", 
        "func_name": "fuse_flatten_flatten___mul_scalar___1", 
        "num_inputs": "1", 
        "num_outputs": "1"
      }, 
      "inputs": [[106, 0, 0]]
    }, 
    {
      "op": "null", 
      "name": "127", 
      "inputs": []
    }, 
    {
      "op": "null", 
      "name": "__mul_scalar__17", 
      "inputs": []
    }, 
    {
      "op": "tvm_op", 
      "name": "relu10", 
      "attrs": {
        "flatten_data": "0", 
        "func_name": "fuse_dense_relu_1", 
        "num_inputs": "3", 
        "num_outputs": "1"
      }, 
      "inputs": [[107, 0, 0], [108, 0, 0], [109, 0, 0]]
    }, 
    {
      "op": "tvm_op", 
      "name": "__mul_scalar__18", 
      "attrs": {
        "flatten_data": "0", 
        "func_name": "fuse_flatten___mul_scalar___1", 
        "num_inputs": "1", 
        "num_outputs": "1"
      }, 
      "inputs": [[110, 0, 0]]
    }, 
    {
      "op": "null", 
      "name": "129", 
      "inputs": []
    }, 
    {
      "op": "null", 
      "name": "__mul_scalar__19", 
      "inputs": []
    }, 
    {
      "op": "tvm_op", 
      "name": "sigmoid4", 
      "attrs": {
        "flatten_data": "0", 
        "func_name": "fuse_dense_sigmoid_1", 
        "num_inputs": "3", 
        "num_outputs": "1"
      }, 
      "inputs": [[111, 0, 0], [112, 0, 0], [113, 0, 0]]
    }, 
    {
      "op": "tvm_op", 
      "name": "elemwise_add4", 
      "attrs": {
        "flatten_data": "0", 
        "func_name": "fuse_reshape_broadcast_mul_elemwise_add_1", 
        "num_inputs": "3", 
        "num_outputs": "1"
      }, 
      "inputs": [[105, 0, 0], [114, 0, 0], [94, 0, 0]]
    }, 
    {
      "op": "null", 
      "name": "batch_norm18_gamma_mul_div_expand", 
      "inputs": []
    }, 
    {
      "op": "null", 
      "name": "batch_norm18_add_beta_expand", 
      "inputs": []
    }, 
    {
      "op": "tvm_op", 
      "name": "batch_norm18_out", 
      "attrs": {
        "flatten_data": "0", 
        "func_name": "fuse_broadcast_mul_broadcast_add_2", 
        "num_inputs": "3", 
        "num_outputs": "1"
      }, 
      "inputs": [[115, 0, 0], [116, 0, 0], [117, 0, 0]]
    }, 
    {
      "op": "null", 
      "name": "135", 
      "inputs": []
    }, 
    {
      "op": "null", 
      "name": "batch_norm19_gamma_mul_div_expand", 
      "inputs": []
    }, 
    {
      "op": "null", 
      "name": "batch_norm19_add_beta_expand", 
      "inputs": []
    }, 
    {
      "op": "tvm_op", 
      "name": "relu11", 
      "attrs": {
        "flatten_data": "0", 
        "func_name": "fuse_conv2d_broadcast_mul_broadcast_add_relu_4", 
        "num_inputs": "4", 
        "num_outputs": "1"
      }, 
      "inputs": [[118, 0, 0], [119, 0, 0], [120, 0, 0], [121, 0, 0]]
    }, 
    {
      "op": "null", 
      "name": "140", 
      "inputs": []
    }, 
    {
      "op": "null", 
      "name": "batch_norm20_gamma_mul_div_expand", 
      "inputs": []
    }, 
    {
      "op": "null", 
      "name": "batch_norm20_add_beta_expand", 
      "inputs": []
    }, 
    {
      "op": "tvm_op", 
      "name": "batch_norm20_out", 
      "attrs": {
        "flatten_data": "0", 
        "func_name": "fuse_conv2d_broadcast_mul_broadcast_add_3", 
        "num_inputs": "4", 
        "num_outputs": "1"
      }, 
      "inputs": [[122, 0, 0], [123, 0, 0], [124, 0, 0], [125, 0, 0]]
    }, 
    {
      "op": "tvm_op", 
      "name": "avg_pool2d5", 
      "attrs": {
        "flatten_data": "0", 
        "func_name": "fuse_avg_pool2d_1", 
        "num_inputs": "1", 
        "num_outputs": "1"
      }, 
      "inputs": [[126, 0, 0]]
    }, 
    {
      "op": "tvm_op", 
      "name": "__mul_scalar__20", 
      "attrs": {
        "flatten_data": "0", 
        "func_name": "fuse_flatten_flatten___mul_scalar___1", 
        "num_inputs": "1", 
        "num_outputs": "1"
      }, 
      "inputs": [[127, 0, 0]]
    }, 
    {
      "op": "null", 
      "name": "150", 
      "inputs": []
    }, 
    {
      "op": "null", 
      "name": "__mul_scalar__21", 
      "inputs": []
    }, 
    {
      "op": "tvm_op", 
      "name": "relu12", 
      "attrs": {
        "flatten_data": "0", 
        "func_name": "fuse_dense_relu_1", 
        "num_inputs": "3", 
        "num_outputs": "1"
      }, 
      "inputs": [[128, 0, 0], [129, 0, 0], [130, 0, 0]]
    }, 
    {
      "op": "tvm_op", 
      "name": "__mul_scalar__22", 
      "attrs": {
        "flatten_data": "0", 
        "func_name": "fuse_flatten___mul_scalar___1", 
        "num_inputs": "1", 
        "num_outputs": "1"
      }, 
      "inputs": [[131, 0, 0]]
    }, 
    {
      "op": "null", 
      "name": "152", 
      "inputs": []
    }, 
    {
      "op": "null", 
      "name": "__mul_scalar__23", 
      "inputs": []
    }, 
    {
      "op": "tvm_op", 
      "name": "sigmoid5", 
      "attrs": {
        "flatten_data": "0", 
        "func_name": "fuse_dense_sigmoid_1", 
        "num_inputs": "3", 
        "num_outputs": "1"
      }, 
      "inputs": [[132, 0, 0], [133, 0, 0], [134, 0, 0]]
    }, 
    {
      "op": "tvm_op", 
      "name": "elemwise_add5", 
      "attrs": {
        "flatten_data": "0", 
        "func_name": "fuse_reshape_broadcast_mul_elemwise_add_1", 
        "num_inputs": "3", 
        "num_outputs": "1"
      }, 
      "inputs": [[126, 0, 0], [135, 0, 0], [115, 0, 0]]
    }, 
    {
      "op": "null", 
      "name": "batch_norm21_gamma_mul_div_expand", 
      "inputs": []
    }, 
    {
      "op": "null", 
      "name": "batch_norm21_add_beta_expand", 
      "inputs": []
    }, 
    {
      "op": "tvm_op", 
      "name": "batch_norm21_out", 
      "attrs": {
        "flatten_data": "0", 
        "func_name": "fuse_broadcast_mul_broadcast_add_2", 
        "num_inputs": "3", 
        "num_outputs": "1"
      }, 
      "inputs": [[136, 0, 0], [137, 0, 0], [138, 0, 0]]
    }, 
    {
      "op": "null", 
      "name": "158", 
      "inputs": []
    }, 
    {
      "op": "null", 
      "name": "batch_norm22_gamma_mul_div_expand", 
      "inputs": []
    }, 
    {
      "op": "null", 
      "name": "batch_norm22_add_beta_expand", 
      "inputs": []
    }, 
    {
      "op": "tvm_op", 
      "name": "relu13", 
      "attrs": {
        "flatten_data": "0", 
        "func_name": "fuse_conv2d_broadcast_mul_broadcast_add_relu_4", 
        "num_inputs": "4", 
        "num_outputs": "1"
      }, 
      "inputs": [[139, 0, 0], [140, 0, 0], [141, 0, 0], [142, 0, 0]]
    }, 
    {
      "op": "null", 
      "name": "163", 
      "inputs": []
    }, 
    {
      "op": "null", 
      "name": "batch_norm23_gamma_mul_div_expand", 
      "inputs": []
    }, 
    {
      "op": "null", 
      "name": "batch_norm23_add_beta_expand", 
      "inputs": []
    }, 
    {
      "op": "tvm_op", 
      "name": "batch_norm23_out", 
      "attrs": {
        "flatten_data": "0", 
        "func_name": "fuse_conv2d_broadcast_mul_broadcast_add_3", 
        "num_inputs": "4", 
        "num_outputs": "1"
      }, 
      "inputs": [[143, 0, 0], [144, 0, 0], [145, 0, 0], [146, 0, 0]]
    }, 
    {
      "op": "tvm_op", 
      "name": "avg_pool2d6", 
      "attrs": {
        "flatten_data": "0", 
        "func_name": "fuse_avg_pool2d_1", 
        "num_inputs": "1", 
        "num_outputs": "1"
      }, 
      "inputs": [[147, 0, 0]]
    }, 
    {
      "op": "tvm_op", 
      "name": "__mul_scalar__24", 
      "attrs": {
        "flatten_data": "0", 
        "func_name": "fuse_flatten_flatten___mul_scalar___1", 
        "num_inputs": "1", 
        "num_outputs": "1"
      }, 
      "inputs": [[148, 0, 0]]
    }, 
    {
      "op": "null", 
      "name": "173", 
      "inputs": []
    }, 
    {
      "op": "null", 
      "name": "__mul_scalar__25", 
      "inputs": []
    }, 
    {
      "op": "tvm_op", 
      "name": "relu14", 
      "attrs": {
        "flatten_data": "0", 
        "func_name": "fuse_dense_relu_1", 
        "num_inputs": "3", 
        "num_outputs": "1"
      }, 
      "inputs": [[149, 0, 0], [150, 0, 0], [151, 0, 0]]
    }, 
    {
      "op": "tvm_op", 
      "name": "__mul_scalar__26", 
      "attrs": {
        "flatten_data": "0", 
        "func_name": "fuse_flatten___mul_scalar___1", 
        "num_inputs": "1", 
        "num_outputs": "1"
      }, 
      "inputs": [[152, 0, 0]]
    }, 
    {
      "op": "null", 
      "name": "175", 
      "inputs": []
    }, 
    {
      "op": "null", 
      "name": "__mul_scalar__27", 
      "inputs": []
    }, 
    {
      "op": "tvm_op", 
      "name": "sigmoid6", 
      "attrs": {
        "flatten_data": "0", 
        "func_name": "fuse_dense_sigmoid_1", 
        "num_inputs": "3", 
        "num_outputs": "1"
      }, 
      "inputs": [[153, 0, 0], [154, 0, 0], [155, 0, 0]]
    }, 
    {
      "op": "tvm_op", 
      "name": "elemwise_add6", 
      "attrs": {
        "flatten_data": "0", 
        "func_name": "fuse_reshape_broadcast_mul_elemwise_add_1", 
        "num_inputs": "3", 
        "num_outputs": "1"
      }, 
      "inputs": [[147, 0, 0], [156, 0, 0], [136, 0, 0]]
    }, 
    {
      "op": "null", 
      "name": "batch_norm24_gamma_mul_div_expand", 
      "inputs": []
    }, 
    {
      "op": "null", 
      "name": "batch_norm24_add_beta_expand", 
      "inputs": []
    }, 
    {
      "op": "tvm_op", 
      "name": "batch_norm24_out", 
      "attrs": {
        "flatten_data": "0", 
        "func_name": "fuse_broadcast_mul_broadcast_add_2", 
        "num_inputs": "3", 
        "num_outputs": "1"
      }, 
      "inputs": [[157, 0, 0], [158, 0, 0], [159, 0, 0]]
    }, 
    {
      "op": "null", 
      "name": "181", 
      "inputs": []
    }, 
    {
      "op": "null", 
      "name": "batch_norm25_gamma_mul_div_expand", 
      "inputs": []
    }, 
    {
      "op": "null", 
      "name": "batch_norm25_add_beta_expand", 
      "inputs": []
    }, 
    {
      "op": "tvm_op", 
      "name": "relu15", 
      "attrs": {
        "flatten_data": "0", 
        "func_name": "fuse_conv2d_broadcast_mul_broadcast_add_relu_5", 
        "num_inputs": "4", 
        "num_outputs": "1"
      }, 
      "inputs": [[160, 0, 0], [161, 0, 0], [162, 0, 0], [163, 0, 0]]
    }, 
    {
      "op": "null", 
      "name": "186", 
      "inputs": []
    }, 
    {
      "op": "null", 
      "name": "batch_norm26_gamma_mul_div_expand", 
      "inputs": []
    }, 
    {
      "op": "null", 
      "name": "batch_norm26_add_beta_expand", 
      "inputs": []
    }, 
    {
      "op": "tvm_op", 
      "name": "batch_norm26_out", 
      "attrs": {
        "flatten_data": "0", 
        "func_name": "fuse_conv2d_broadcast_mul_broadcast_add_4", 
        "num_inputs": "4", 
        "num_outputs": "1"
      }, 
      "inputs": [[164, 0, 0], [165, 0, 0], [166, 0, 0], [167, 0, 0]]
    }, 
    {
      "op": "tvm_op", 
      "name": "avg_pool2d7", 
      "attrs": {
        "flatten_data": "0", 
        "func_name": "fuse_avg_pool2d_2", 
        "num_inputs": "1", 
        "num_outputs": "1"
      }, 
      "inputs": [[168, 0, 0]]
    }, 
    {
      "op": "tvm_op", 
      "name": "__mul_scalar__28", 
      "attrs": {
        "flatten_data": "0", 
        "func_name": "fuse_flatten_flatten___mul_scalar___2", 
        "num_inputs": "1", 
        "num_outputs": "1"
      }, 
      "inputs": [[169, 0, 0]]
    }, 
    {
      "op": "null", 
      "name": "201", 
      "inputs": []
    }, 
    {
      "op": "null", 
      "name": "__mul_scalar__29", 
      "inputs": []
    }, 
    {
      "op": "tvm_op", 
      "name": "relu16", 
      "attrs": {
        "flatten_data": "0", 
        "func_name": "fuse_dense_relu_2", 
        "num_inputs": "3", 
        "num_outputs": "1"
      }, 
      "inputs": [[170, 0, 0], [171, 0, 0], [172, 0, 0]]
    }, 
    {
      "op": "tvm_op", 
      "name": "__mul_scalar__30", 
      "attrs": {
        "flatten_data": "0", 
        "func_name": "fuse_flatten___mul_scalar___2", 
        "num_inputs": "1", 
        "num_outputs": "1"
      }, 
      "inputs": [[173, 0, 0]]
    }, 
    {
      "op": "null", 
      "name": "203", 
      "inputs": []
    }, 
    {
      "op": "null", 
      "name": "__mul_scalar__31", 
      "inputs": []
    }, 
    {
      "op": "tvm_op", 
      "name": "sigmoid7", 
      "attrs": {
        "flatten_data": "0", 
        "func_name": "fuse_dense_sigmoid_2", 
        "num_inputs": "3", 
        "num_outputs": "1"
      }, 
      "inputs": [[174, 0, 0], [175, 0, 0], [176, 0, 0]]
    }, 
    {
      "op": "null", 
      "name": "196", 
      "inputs": []
    }, 
    {
      "op": "null", 
      "name": "batch_norm27_gamma_mul_div_expand", 
      "inputs": []
    }, 
    {
      "op": "null", 
      "name": "batch_norm27_add_beta_expand", 
      "inputs": []
    }, 
    {
      "op": "tvm_op", 
      "name": "elemwise_add7", 
      "attrs": {
        "flatten_data": "0", 
        "func_name": "fuse_reshape_broadcast_mul_conv2d_broadcast_mul_broadcast_add_elemwise_add_2", 
        "num_inputs": "6", 
        "num_outputs": "1"
      }, 
      "inputs": [[168, 0, 0], [177, 0, 0], [157, 0, 0], [178, 0, 0], [179, 0, 0], [180, 0, 0]]
    }, 
    {
      "op": "null", 
      "name": "batch_norm28_gamma_mul_div_expand", 
      "inputs": []
    }, 
    {
      "op": "null", 
      "name": "batch_norm28_add_beta_expand", 
      "inputs": []
    }, 
    {
      "op": "tvm_op", 
      "name": "batch_norm28_out", 
      "attrs": {
        "flatten_data": "0", 
        "func_name": "fuse_broadcast_mul_broadcast_add_3", 
        "num_inputs": "3", 
        "num_outputs": "1"
      }, 
      "inputs": [[181, 0, 0], [182, 0, 0], [183, 0, 0]]
    }, 
    {
      "op": "null", 
      "name": "209", 
      "inputs": []
    }, 
    {
      "op": "null", 
      "name": "batch_norm29_gamma_mul_div_expand", 
      "inputs": []
    }, 
    {
      "op": "null", 
      "name": "batch_norm29_add_beta_expand", 
      "inputs": []
    }, 
    {
      "op": "tvm_op", 
      "name": "relu17", 
      "attrs": {
        "flatten_data": "0", 
        "func_name": "fuse_conv2d_broadcast_mul_broadcast_add_relu_6", 
        "num_inputs": "4", 
        "num_outputs": "1"
      }, 
      "inputs": [[184, 0, 0], [185, 0, 0], [186, 0, 0], [187, 0, 0]]
    }, 
    {
      "op": "null", 
      "name": "214", 
      "inputs": []
    }, 
    {
      "op": "null", 
      "name": "batch_norm30_gamma_mul_div_expand", 
      "inputs": []
    }, 
    {
      "op": "null", 
      "name": "batch_norm30_add_beta_expand", 
      "inputs": []
    }, 
    {
      "op": "tvm_op", 
      "name": "batch_norm30_out", 
      "attrs": {
        "flatten_data": "0", 
        "func_name": "fuse_conv2d_broadcast_mul_broadcast_add_5", 
        "num_inputs": "4", 
        "num_outputs": "1"
      }, 
      "inputs": [[188, 0, 0], [189, 0, 0], [190, 0, 0], [191, 0, 0]]
    }, 
    {
      "op": "tvm_op", 
      "name": "avg_pool2d8", 
      "attrs": {
        "flatten_data": "0", 
        "func_name": "fuse_avg_pool2d_2", 
        "num_inputs": "1", 
        "num_outputs": "1"
      }, 
      "inputs": [[192, 0, 0]]
    }, 
    {
      "op": "tvm_op", 
      "name": "__mul_scalar__32", 
      "attrs": {
        "flatten_data": "0", 
        "func_name": "fuse_flatten_flatten___mul_scalar___2", 
        "num_inputs": "1", 
        "num_outputs": "1"
      }, 
      "inputs": [[193, 0, 0]]
    }, 
    {
      "op": "null", 
      "name": "224", 
      "inputs": []
    }, 
    {
      "op": "null", 
      "name": "__mul_scalar__33", 
      "inputs": []
    }, 
    {
      "op": "tvm_op", 
      "name": "relu18", 
      "attrs": {
        "flatten_data": "0", 
        "func_name": "fuse_dense_relu_2", 
        "num_inputs": "3", 
        "num_outputs": "1"
      }, 
      "inputs": [[194, 0, 0], [195, 0, 0], [196, 0, 0]]
    }, 
    {
      "op": "tvm_op", 
      "name": "__mul_scalar__34", 
      "attrs": {
        "flatten_data": "0", 
        "func_name": "fuse_flatten___mul_scalar___2", 
        "num_inputs": "1", 
        "num_outputs": "1"
      }, 
      "inputs": [[197, 0, 0]]
    }, 
    {
      "op": "null", 
      "name": "226", 
      "inputs": []
    }, 
    {
      "op": "null", 
      "name": "__mul_scalar__35", 
      "inputs": []
    }, 
    {
      "op": "tvm_op", 
      "name": "sigmoid8", 
      "attrs": {
        "flatten_data": "0", 
        "func_name": "fuse_dense_sigmoid_2", 
        "num_inputs": "3", 
        "num_outputs": "1"
      }, 
      "inputs": [[198, 0, 0], [199, 0, 0], [200, 0, 0]]
    }, 
    {
      "op": "tvm_op", 
      "name": "elemwise_add8", 
      "attrs": {
        "flatten_data": "0", 
        "func_name": "fuse_reshape_broadcast_mul_elemwise_add_2", 
        "num_inputs": "3", 
        "num_outputs": "1"
      }, 
      "inputs": [[192, 0, 0], [201, 0, 0], [181, 0, 0]]
    }, 
    {
      "op": "null", 
      "name": "batch_norm31_gamma_mul_div_expand", 
      "inputs": []
    }, 
    {
      "op": "null", 
      "name": "batch_norm31_add_beta_expand", 
      "inputs": []
    }, 
    {
      "op": "tvm_op", 
      "name": "batch_norm31_out", 
      "attrs": {
        "flatten_data": "0", 
        "func_name": "fuse_broadcast_mul_broadcast_add_3", 
        "num_inputs": "3", 
        "num_outputs": "1"
      }, 
      "inputs": [[202, 0, 0], [203, 0, 0], [204, 0, 0]]
    }, 
    {
      "op": "null", 
      "name": "232", 
      "inputs": []
    }, 
    {
      "op": "null", 
      "name": "batch_norm32_gamma_mul_div_expand", 
      "inputs": []
    }, 
    {
      "op": "null", 
      "name": "batch_norm32_add_beta_expand", 
      "inputs": []
    }, 
    {
      "op": "tvm_op", 
      "name": "relu19", 
      "attrs": {
        "flatten_data": "0", 
        "func_name": "fuse_conv2d_broadcast_mul_broadcast_add_relu_6", 
        "num_inputs": "4", 
        "num_outputs": "1"
      }, 
      "inputs": [[205, 0, 0], [206, 0, 0], [207, 0, 0], [208, 0, 0]]
    }, 
    {
      "op": "null", 
      "name": "237", 
      "inputs": []
    }, 
    {
      "op": "null", 
      "name": "batch_norm33_gamma_mul_div_expand", 
      "inputs": []
    }, 
    {
      "op": "null", 
      "name": "batch_norm33_add_beta_expand", 
      "inputs": []
    }, 
    {
      "op": "tvm_op", 
      "name": "batch_norm33_out", 
      "attrs": {
        "flatten_data": "0", 
        "func_name": "fuse_conv2d_broadcast_mul_broadcast_add_5", 
        "num_inputs": "4", 
        "num_outputs": "1"
      }, 
      "inputs": [[209, 0, 0], [210, 0, 0], [211, 0, 0], [212, 0, 0]]
    }, 
    {
      "op": "tvm_op", 
      "name": "avg_pool2d9", 
      "attrs": {
        "flatten_data": "0", 
        "func_name": "fuse_avg_pool2d_2", 
        "num_inputs": "1", 
        "num_outputs": "1"
      }, 
      "inputs": [[213, 0, 0]]
    }, 
    {
      "op": "tvm_op", 
      "name": "__mul_scalar__36", 
      "attrs": {
        "flatten_data": "0", 
        "func_name": "fuse_flatten_flatten___mul_scalar___2", 
        "num_inputs": "1", 
        "num_outputs": "1"
      }, 
      "inputs": [[214, 0, 0]]
    }, 
    {
      "op": "null", 
      "name": "247", 
      "inputs": []
    }, 
    {
      "op": "null", 
      "name": "__mul_scalar__37", 
      "inputs": []
    }, 
    {
      "op": "tvm_op", 
      "name": "relu20", 
      "attrs": {
        "flatten_data": "0", 
        "func_name": "fuse_dense_relu_2", 
        "num_inputs": "3", 
        "num_outputs": "1"
      }, 
      "inputs": [[215, 0, 0], [216, 0, 0], [217, 0, 0]]
    }, 
    {
      "op": "tvm_op", 
      "name": "__mul_scalar__38", 
      "attrs": {
        "flatten_data": "0", 
        "func_name": "fuse_flatten___mul_scalar___2", 
        "num_inputs": "1", 
        "num_outputs": "1"
      }, 
      "inputs": [[218, 0, 0]]
    }, 
    {
      "op": "null", 
      "name": "249", 
      "inputs": []
    }, 
    {
      "op": "null", 
      "name": "__mul_scalar__39", 
      "inputs": []
    }, 
    {
      "op": "tvm_op", 
      "name": "sigmoid9", 
      "attrs": {
        "flatten_data": "0", 
        "func_name": "fuse_dense_sigmoid_2", 
        "num_inputs": "3", 
        "num_outputs": "1"
      }, 
      "inputs": [[219, 0, 0], [220, 0, 0], [221, 0, 0]]
    }, 
    {
      "op": "tvm_op", 
      "name": "elemwise_add9", 
      "attrs": {
        "flatten_data": "0", 
        "func_name": "fuse_reshape_broadcast_mul_elemwise_add_2", 
        "num_inputs": "3", 
        "num_outputs": "1"
      }, 
      "inputs": [[213, 0, 0], [222, 0, 0], [202, 0, 0]]
    }, 
    {
      "op": "null", 
      "name": "batch_norm34_gamma_mul_div_expand", 
      "inputs": []
    }, 
    {
      "op": "null", 
      "name": "batch_norm34_add_beta_expand", 
      "inputs": []
    }, 
    {
      "op": "tvm_op", 
      "name": "batch_norm34_out", 
      "attrs": {
        "flatten_data": "0", 
        "func_name": "fuse_broadcast_mul_broadcast_add_3", 
        "num_inputs": "3", 
        "num_outputs": "1"
      }, 
      "inputs": [[223, 0, 0], [224, 0, 0], [225, 0, 0]]
    }, 
    {
      "op": "null", 
      "name": "255", 
      "inputs": []
    }, 
    {
      "op": "null", 
      "name": "batch_norm35_gamma_mul_div_expand", 
      "inputs": []
    }, 
    {
      "op": "null", 
      "name": "batch_norm35_add_beta_expand", 
      "inputs": []
    }, 
    {
      "op": "tvm_op", 
      "name": "relu21", 
      "attrs": {
        "flatten_data": "0", 
        "func_name": "fuse_conv2d_broadcast_mul_broadcast_add_relu_6", 
        "num_inputs": "4", 
        "num_outputs": "1"
      }, 
      "inputs": [[226, 0, 0], [227, 0, 0], [228, 0, 0], [229, 0, 0]]
    }, 
    {
      "op": "null", 
      "name": "260", 
      "inputs": []
    }, 
    {
      "op": "null", 
      "name": "batch_norm36_gamma_mul_div_expand", 
      "inputs": []
    }, 
    {
      "op": "null", 
      "name": "batch_norm36_add_beta_expand", 
      "inputs": []
    }, 
    {
      "op": "tvm_op", 
      "name": "batch_norm36_out", 
      "attrs": {
        "flatten_data": "0", 
        "func_name": "fuse_conv2d_broadcast_mul_broadcast_add_5", 
        "num_inputs": "4", 
        "num_outputs": "1"
      }, 
      "inputs": [[230, 0, 0], [231, 0, 0], [232, 0, 0], [233, 0, 0]]
    }, 
    {
      "op": "tvm_op", 
      "name": "avg_pool2d10", 
      "attrs": {
        "flatten_data": "0", 
        "func_name": "fuse_avg_pool2d_2", 
        "num_inputs": "1", 
        "num_outputs": "1"
      }, 
      "inputs": [[234, 0, 0]]
    }, 
    {
      "op": "tvm_op", 
      "name": "__mul_scalar__40", 
      "attrs": {
        "flatten_data": "0", 
        "func_name": "fuse_flatten_flatten___mul_scalar___2", 
        "num_inputs": "1", 
        "num_outputs": "1"
      }, 
      "inputs": [[235, 0, 0]]
    }, 
    {
      "op": "null", 
      "name": "270", 
      "inputs": []
    }, 
    {
      "op": "null", 
      "name": "__mul_scalar__41", 
      "inputs": []
    }, 
    {
      "op": "tvm_op", 
      "name": "relu22", 
      "attrs": {
        "flatten_data": "0", 
        "func_name": "fuse_dense_relu_2", 
        "num_inputs": "3", 
        "num_outputs": "1"
      }, 
      "inputs": [[236, 0, 0], [237, 0, 0], [238, 0, 0]]
    }, 
    {
      "op": "tvm_op", 
      "name": "__mul_scalar__42", 
      "attrs": {
        "flatten_data": "0", 
        "func_name": "fuse_flatten___mul_scalar___2", 
        "num_inputs": "1", 
        "num_outputs": "1"
      }, 
      "inputs": [[239, 0, 0]]
    }, 
    {
      "op": "null", 
      "name": "272", 
      "inputs": []
    }, 
    {
      "op": "null", 
      "name": "__mul_scalar__43", 
      "inputs": []
    }, 
    {
      "op": "tvm_op", 
      "name": "sigmoid10", 
      "attrs": {
        "flatten_data": "0", 
        "func_name": "fuse_dense_sigmoid_2", 
        "num_inputs": "3", 
        "num_outputs": "1"
      }, 
      "inputs": [[240, 0, 0], [241, 0, 0], [242, 0, 0]]
    }, 
    {
      "op": "tvm_op", 
      "name": "elemwise_add10", 
      "attrs": {
        "flatten_data": "0", 
        "func_name": "fuse_reshape_broadcast_mul_elemwise_add_2", 
        "num_inputs": "3", 
        "num_outputs": "1"
      }, 
      "inputs": [[234, 0, 0], [243, 0, 0], [223, 0, 0]]
    }, 
    {
      "op": "null", 
      "name": "batch_norm37_gamma_mul_div_expand", 
      "inputs": []
    }, 
    {
      "op": "null", 
      "name": "batch_norm37_add_beta_expand", 
      "inputs": []
    }, 
    {
      "op": "tvm_op", 
      "name": "batch_norm37_out", 
      "attrs": {
        "flatten_data": "0", 
        "func_name": "fuse_broadcast_mul_broadcast_add_3", 
        "num_inputs": "3", 
        "num_outputs": "1"
      }, 
      "inputs": [[244, 0, 0], [245, 0, 0], [246, 0, 0]]
    }, 
    {
      "op": "null", 
      "name": "278", 
      "inputs": []
    }, 
    {
      "op": "null", 
      "name": "batch_norm38_gamma_mul_div_expand", 
      "inputs": []
    }, 
    {
      "op": "null", 
      "name": "batch_norm38_add_beta_expand", 
      "inputs": []
    }, 
    {
      "op": "tvm_op", 
      "name": "relu23", 
      "attrs": {
        "flatten_data": "0", 
        "func_name": "fuse_conv2d_broadcast_mul_broadcast_add_relu_6", 
        "num_inputs": "4", 
        "num_outputs": "1"
      }, 
      "inputs": [[247, 0, 0], [248, 0, 0], [249, 0, 0], [250, 0, 0]]
    }, 
    {
      "op": "null", 
      "name": "283", 
      "inputs": []
    }, 
    {
      "op": "null", 
      "name": "batch_norm39_gamma_mul_div_expand", 
      "inputs": []
    }, 
    {
      "op": "null", 
      "name": "batch_norm39_add_beta_expand", 
      "inputs": []
    }, 
    {
      "op": "tvm_op", 
      "name": "batch_norm39_out", 
      "attrs": {
        "flatten_data": "0", 
        "func_name": "fuse_conv2d_broadcast_mul_broadcast_add_5", 
        "num_inputs": "4", 
        "num_outputs": "1"
      }, 
      "inputs": [[251, 0, 0], [252, 0, 0], [253, 0, 0], [254, 0, 0]]
    }, 
    {
      "op": "tvm_op", 
      "name": "avg_pool2d11", 
      "attrs": {
        "flatten_data": "0", 
        "func_name": "fuse_avg_pool2d_2", 
        "num_inputs": "1", 
        "num_outputs": "1"
      }, 
      "inputs": [[255, 0, 0]]
    }, 
    {
      "op": "tvm_op", 
      "name": "__mul_scalar__44", 
      "attrs": {
        "flatten_data": "0", 
        "func_name": "fuse_flatten_flatten___mul_scalar___2", 
        "num_inputs": "1", 
        "num_outputs": "1"
      }, 
      "inputs": [[256, 0, 0]]
    }, 
    {
      "op": "null", 
      "name": "293", 
      "inputs": []
    }, 
    {
      "op": "null", 
      "name": "__mul_scalar__45", 
      "inputs": []
    }, 
    {
      "op": "tvm_op", 
      "name": "relu24", 
      "attrs": {
        "flatten_data": "0", 
        "func_name": "fuse_dense_relu_2", 
        "num_inputs": "3", 
        "num_outputs": "1"
      }, 
      "inputs": [[257, 0, 0], [258, 0, 0], [259, 0, 0]]
    }, 
    {
      "op": "tvm_op", 
      "name": "__mul_scalar__46", 
      "attrs": {
        "flatten_data": "0", 
        "func_name": "fuse_flatten___mul_scalar___2", 
        "num_inputs": "1", 
        "num_outputs": "1"
      }, 
      "inputs": [[260, 0, 0]]
    }, 
    {
      "op": "null", 
      "name": "295", 
      "inputs": []
    }, 
    {
      "op": "null", 
      "name": "__mul_scalar__47", 
      "inputs": []
    }, 
    {
      "op": "tvm_op", 
      "name": "sigmoid11", 
      "attrs": {
        "flatten_data": "0", 
        "func_name": "fuse_dense_sigmoid_2", 
        "num_inputs": "3", 
        "num_outputs": "1"
      }, 
      "inputs": [[261, 0, 0], [262, 0, 0], [263, 0, 0]]
    }, 
    {
      "op": "tvm_op", 
      "name": "elemwise_add11", 
      "attrs": {
        "flatten_data": "0", 
        "func_name": "fuse_reshape_broadcast_mul_elemwise_add_2", 
        "num_inputs": "3", 
        "num_outputs": "1"
      }, 
      "inputs": [[255, 0, 0], [264, 0, 0], [244, 0, 0]]
    }, 
    {
      "op": "null", 
      "name": "batch_norm40_gamma_mul_div_expand", 
      "inputs": []
    }, 
    {
      "op": "null", 
      "name": "batch_norm40_add_beta_expand", 
      "inputs": []
    }, 
    {
      "op": "tvm_op", 
      "name": "batch_norm40_out", 
      "attrs": {
        "flatten_data": "0", 
        "func_name": "fuse_broadcast_mul_broadcast_add_3", 
        "num_inputs": "3", 
        "num_outputs": "1"
      }, 
      "inputs": [[265, 0, 0], [266, 0, 0], [267, 0, 0]]
    }, 
    {
      "op": "null", 
      "name": "301", 
      "inputs": []
    }, 
    {
      "op": "null", 
      "name": "batch_norm41_gamma_mul_div_expand", 
      "inputs": []
    }, 
    {
      "op": "null", 
      "name": "batch_norm41_add_beta_expand", 
      "inputs": []
    }, 
    {
      "op": "tvm_op", 
      "name": "relu25", 
      "attrs": {
        "flatten_data": "0", 
        "func_name": "fuse_conv2d_broadcast_mul_broadcast_add_relu_6", 
        "num_inputs": "4", 
        "num_outputs": "1"
      }, 
      "inputs": [[268, 0, 0], [269, 0, 0], [270, 0, 0], [271, 0, 0]]
    }, 
    {
      "op": "null", 
      "name": "306", 
      "inputs": []
    }, 
    {
      "op": "null", 
      "name": "batch_norm42_gamma_mul_div_expand", 
      "inputs": []
    }, 
    {
      "op": "null", 
      "name": "batch_norm42_add_beta_expand", 
      "inputs": []
    }, 
    {
      "op": "tvm_op", 
      "name": "batch_norm42_out", 
      "attrs": {
        "flatten_data": "0", 
        "func_name": "fuse_conv2d_broadcast_mul_broadcast_add_5", 
        "num_inputs": "4", 
        "num_outputs": "1"
      }, 
      "inputs": [[272, 0, 0], [273, 0, 0], [274, 0, 0], [275, 0, 0]]
    }, 
    {
      "op": "tvm_op", 
      "name": "avg_pool2d12", 
      "attrs": {
        "flatten_data": "0", 
        "func_name": "fuse_avg_pool2d_2", 
        "num_inputs": "1", 
        "num_outputs": "1"
      }, 
      "inputs": [[276, 0, 0]]
    }, 
    {
      "op": "tvm_op", 
      "name": "__mul_scalar__48", 
      "attrs": {
        "flatten_data": "0", 
        "func_name": "fuse_flatten_flatten___mul_scalar___2", 
        "num_inputs": "1", 
        "num_outputs": "1"
      }, 
      "inputs": [[277, 0, 0]]
    }, 
    {
      "op": "null", 
      "name": "316", 
      "inputs": []
    }, 
    {
      "op": "null", 
      "name": "__mul_scalar__49", 
      "inputs": []
    }, 
    {
      "op": "tvm_op", 
      "name": "relu26", 
      "attrs": {
        "flatten_data": "0", 
        "func_name": "fuse_dense_relu_2", 
        "num_inputs": "3", 
        "num_outputs": "1"
      }, 
      "inputs": [[278, 0, 0], [279, 0, 0], [280, 0, 0]]
    }, 
    {
      "op": "tvm_op", 
      "name": "__mul_scalar__50", 
      "attrs": {
        "flatten_data": "0", 
        "func_name": "fuse_flatten___mul_scalar___2", 
        "num_inputs": "1", 
        "num_outputs": "1"
      }, 
      "inputs": [[281, 0, 0]]
    }, 
    {
      "op": "null", 
      "name": "318", 
      "inputs": []
    }, 
    {
      "op": "null", 
      "name": "__mul_scalar__51", 
      "inputs": []
    }, 
    {
      "op": "tvm_op", 
      "name": "sigmoid12", 
      "attrs": {
        "flatten_data": "0", 
        "func_name": "fuse_dense_sigmoid_2", 
        "num_inputs": "3", 
        "num_outputs": "1"
      }, 
      "inputs": [[282, 0, 0], [283, 0, 0], [284, 0, 0]]
    }, 
    {
      "op": "tvm_op", 
      "name": "elemwise_add12", 
      "attrs": {
        "flatten_data": "0", 
        "func_name": "fuse_reshape_broadcast_mul_elemwise_add_2", 
        "num_inputs": "3", 
        "num_outputs": "1"
      }, 
      "inputs": [[276, 0, 0], [285, 0, 0], [265, 0, 0]]
    }, 
    {
      "op": "null", 
      "name": "batch_norm43_gamma_mul_div_expand", 
      "inputs": []
    }, 
    {
      "op": "null", 
      "name": "batch_norm43_add_beta_expand", 
      "inputs": []
    }, 
    {
      "op": "tvm_op", 
      "name": "batch_norm43_out", 
      "attrs": {
        "flatten_data": "0", 
        "func_name": "fuse_broadcast_mul_broadcast_add_3", 
        "num_inputs": "3", 
        "num_outputs": "1"
      }, 
      "inputs": [[286, 0, 0], [287, 0, 0], [288, 0, 0]]
    }, 
    {
      "op": "null", 
      "name": "324", 
      "inputs": []
    }, 
    {
      "op": "null", 
      "name": "batch_norm44_gamma_mul_div_expand", 
      "inputs": []
    }, 
    {
      "op": "null", 
      "name": "batch_norm44_add_beta_expand", 
      "inputs": []
    }, 
    {
      "op": "tvm_op", 
      "name": "relu27", 
      "attrs": {
        "flatten_data": "0", 
        "func_name": "fuse_conv2d_broadcast_mul_broadcast_add_relu_6", 
        "num_inputs": "4", 
        "num_outputs": "1"
      }, 
      "inputs": [[289, 0, 0], [290, 0, 0], [291, 0, 0], [292, 0, 0]]
    }, 
    {
      "op": "null", 
      "name": "329", 
      "inputs": []
    }, 
    {
      "op": "null", 
      "name": "batch_norm45_gamma_mul_div_expand", 
      "inputs": []
    }, 
    {
      "op": "null", 
      "name": "batch_norm45_add_beta_expand", 
      "inputs": []
    }, 
    {
      "op": "tvm_op", 
      "name": "batch_norm45_out", 
      "attrs": {
        "flatten_data": "0", 
        "func_name": "fuse_conv2d_broadcast_mul_broadcast_add_5", 
        "num_inputs": "4", 
        "num_outputs": "1"
      }, 
      "inputs": [[293, 0, 0], [294, 0, 0], [295, 0, 0], [296, 0, 0]]
    }, 
    {
      "op": "tvm_op", 
      "name": "avg_pool2d13", 
      "attrs": {
        "flatten_data": "0", 
        "func_name": "fuse_avg_pool2d_2", 
        "num_inputs": "1", 
        "num_outputs": "1"
      }, 
      "inputs": [[297, 0, 0]]
    }, 
    {
      "op": "tvm_op", 
      "name": "__mul_scalar__52", 
      "attrs": {
        "flatten_data": "0", 
        "func_name": "fuse_flatten_flatten___mul_scalar___2", 
        "num_inputs": "1", 
        "num_outputs": "1"
      }, 
      "inputs": [[298, 0, 0]]
    }, 
    {
      "op": "null", 
      "name": "339", 
      "inputs": []
    }, 
    {
      "op": "null", 
      "name": "__mul_scalar__53", 
      "inputs": []
    }, 
    {
      "op": "tvm_op", 
      "name": "relu28", 
      "attrs": {
        "flatten_data": "0", 
        "func_name": "fuse_dense_relu_2", 
        "num_inputs": "3", 
        "num_outputs": "1"
      }, 
      "inputs": [[299, 0, 0], [300, 0, 0], [301, 0, 0]]
    }, 
    {
      "op": "tvm_op", 
      "name": "__mul_scalar__54", 
      "attrs": {
        "flatten_data": "0", 
        "func_name": "fuse_flatten___mul_scalar___2", 
        "num_inputs": "1", 
        "num_outputs": "1"
      }, 
      "inputs": [[302, 0, 0]]
    }, 
    {
      "op": "null", 
      "name": "341", 
      "inputs": []
    }, 
    {
      "op": "null", 
      "name": "__mul_scalar__55", 
      "inputs": []
    }, 
    {
      "op": "tvm_op", 
      "name": "sigmoid13", 
      "attrs": {
        "flatten_data": "0", 
        "func_name": "fuse_dense_sigmoid_2", 
        "num_inputs": "3", 
        "num_outputs": "1"
      }, 
      "inputs": [[303, 0, 0], [304, 0, 0], [305, 0, 0]]
    }, 
    {
      "op": "tvm_op", 
      "name": "elemwise_add13", 
      "attrs": {
        "flatten_data": "0", 
        "func_name": "fuse_reshape_broadcast_mul_elemwise_add_2", 
        "num_inputs": "3", 
        "num_outputs": "1"
      }, 
      "inputs": [[297, 0, 0], [306, 0, 0], [286, 0, 0]]
    }, 
    {
      "op": "null", 
      "name": "batch_norm46_gamma_mul_div_expand", 
      "inputs": []
    }, 
    {
      "op": "null", 
      "name": "batch_norm46_add_beta_expand", 
      "inputs": []
    }, 
    {
      "op": "tvm_op", 
      "name": "batch_norm46_out", 
      "attrs": {
        "flatten_data": "0", 
        "func_name": "fuse_broadcast_mul_broadcast_add_3", 
        "num_inputs": "3", 
        "num_outputs": "1"
      }, 
      "inputs": [[307, 0, 0], [308, 0, 0], [309, 0, 0]]
    }, 
    {
      "op": "null", 
      "name": "347", 
      "inputs": []
    }, 
    {
      "op": "null", 
      "name": "batch_norm47_gamma_mul_div_expand", 
      "inputs": []
    }, 
    {
      "op": "null", 
      "name": "batch_norm47_add_beta_expand", 
      "inputs": []
    }, 
    {
      "op": "tvm_op", 
      "name": "relu29", 
      "attrs": {
        "flatten_data": "0", 
        "func_name": "fuse_conv2d_broadcast_mul_broadcast_add_relu_6", 
        "num_inputs": "4", 
        "num_outputs": "1"
      }, 
      "inputs": [[310, 0, 0], [311, 0, 0], [312, 0, 0], [313, 0, 0]]
    }, 
    {
      "op": "null", 
      "name": "352", 
      "inputs": []
    }, 
    {
      "op": "null", 
      "name": "batch_norm48_gamma_mul_div_expand", 
      "inputs": []
    }, 
    {
      "op": "null", 
      "name": "batch_norm48_add_beta_expand", 
      "inputs": []
    }, 
    {
      "op": "tvm_op", 
      "name": "batch_norm48_out", 
      "attrs": {
        "flatten_data": "0", 
        "func_name": "fuse_conv2d_broadcast_mul_broadcast_add_5", 
        "num_inputs": "4", 
        "num_outputs": "1"
      }, 
      "inputs": [[314, 0, 0], [315, 0, 0], [316, 0, 0], [317, 0, 0]]
    }, 
    {
      "op": "tvm_op", 
      "name": "avg_pool2d14", 
      "attrs": {
        "flatten_data": "0", 
        "func_name": "fuse_avg_pool2d_2", 
        "num_inputs": "1", 
        "num_outputs": "1"
      }, 
      "inputs": [[318, 0, 0]]
    }, 
    {
      "op": "tvm_op", 
      "name": "__mul_scalar__56", 
      "attrs": {
        "flatten_data": "0", 
        "func_name": "fuse_flatten_flatten___mul_scalar___2", 
        "num_inputs": "1", 
        "num_outputs": "1"
      }, 
      "inputs": [[319, 0, 0]]
    }, 
    {
      "op": "null", 
      "name": "362", 
      "inputs": []
    }, 
    {
      "op": "null", 
      "name": "__mul_scalar__57", 
      "inputs": []
    }, 
    {
      "op": "tvm_op", 
      "name": "relu30", 
      "attrs": {
        "flatten_data": "0", 
        "func_name": "fuse_dense_relu_2", 
        "num_inputs": "3", 
        "num_outputs": "1"
      }, 
      "inputs": [[320, 0, 0], [321, 0, 0], [322, 0, 0]]
    }, 
    {
      "op": "tvm_op", 
      "name": "__mul_scalar__58", 
      "attrs": {
        "flatten_data": "0", 
        "func_name": "fuse_flatten___mul_scalar___2", 
        "num_inputs": "1", 
        "num_outputs": "1"
      }, 
      "inputs": [[323, 0, 0]]
    }, 
    {
      "op": "null", 
      "name": "364", 
      "inputs": []
    }, 
    {
      "op": "null", 
      "name": "__mul_scalar__59", 
      "inputs": []
    }, 
    {
      "op": "tvm_op", 
      "name": "sigmoid14", 
      "attrs": {
        "flatten_data": "0", 
        "func_name": "fuse_dense_sigmoid_2", 
        "num_inputs": "3", 
        "num_outputs": "1"
      }, 
      "inputs": [[324, 0, 0], [325, 0, 0], [326, 0, 0]]
    }, 
    {
      "op": "tvm_op", 
      "name": "elemwise_add14", 
      "attrs": {
        "flatten_data": "0", 
        "func_name": "fuse_reshape_broadcast_mul_elemwise_add_2", 
        "num_inputs": "3", 
        "num_outputs": "1"
      }, 
      "inputs": [[318, 0, 0], [327, 0, 0], [307, 0, 0]]
    }, 
    {
      "op": "null", 
      "name": "batch_norm49_gamma_mul_div_expand", 
      "inputs": []
    }, 
    {
      "op": "null", 
      "name": "batch_norm49_add_beta_expand", 
      "inputs": []
    }, 
    {
      "op": "tvm_op", 
      "name": "batch_norm49_out", 
      "attrs": {
        "flatten_data": "0", 
        "func_name": "fuse_broadcast_mul_broadcast_add_3", 
        "num_inputs": "3", 
        "num_outputs": "1"
      }, 
      "inputs": [[328, 0, 0], [329, 0, 0], [330, 0, 0]]
    }, 
    {
      "op": "null", 
      "name": "370", 
      "inputs": []
    }, 
    {
      "op": "null", 
      "name": "batch_norm50_gamma_mul_div_expand", 
      "inputs": []
    }, 
    {
      "op": "null", 
      "name": "batch_norm50_add_beta_expand", 
      "inputs": []
    }, 
    {
      "op": "tvm_op", 
      "name": "relu31", 
      "attrs": {
        "flatten_data": "0", 
        "func_name": "fuse_conv2d_broadcast_mul_broadcast_add_relu_6", 
        "num_inputs": "4", 
        "num_outputs": "1"
      }, 
      "inputs": [[331, 0, 0], [332, 0, 0], [333, 0, 0], [334, 0, 0]]
    }, 
    {
      "op": "null", 
      "name": "375", 
      "inputs": []
    }, 
    {
      "op": "null", 
      "name": "batch_norm51_gamma_mul_div_expand", 
      "inputs": []
    }, 
    {
      "op": "null", 
      "name": "batch_norm51_add_beta_expand", 
      "inputs": []
    }, 
    {
      "op": "tvm_op", 
      "name": "batch_norm51_out", 
      "attrs": {
        "flatten_data": "0", 
        "func_name": "fuse_conv2d_broadcast_mul_broadcast_add_5", 
        "num_inputs": "4", 
        "num_outputs": "1"
      }, 
      "inputs": [[335, 0, 0], [336, 0, 0], [337, 0, 0], [338, 0, 0]]
    }, 
    {
      "op": "tvm_op", 
      "name": "avg_pool2d15", 
      "attrs": {
        "flatten_data": "0", 
        "func_name": "fuse_avg_pool2d_2", 
        "num_inputs": "1", 
        "num_outputs": "1"
      }, 
      "inputs": [[339, 0, 0]]
    }, 
    {
      "op": "tvm_op", 
      "name": "__mul_scalar__60", 
      "attrs": {
        "flatten_data": "0", 
        "func_name": "fuse_flatten_flatten___mul_scalar___2", 
        "num_inputs": "1", 
        "num_outputs": "1"
      }, 
      "inputs": [[340, 0, 0]]
    }, 
    {
      "op": "null", 
      "name": "385", 
      "inputs": []
    }, 
    {
      "op": "null", 
      "name": "__mul_scalar__61", 
      "inputs": []
    }, 
    {
      "op": "tvm_op", 
      "name": "relu32", 
      "attrs": {
        "flatten_data": "0", 
        "func_name": "fuse_dense_relu_2", 
        "num_inputs": "3", 
        "num_outputs": "1"
      }, 
      "inputs": [[341, 0, 0], [342, 0, 0], [343, 0, 0]]
    }, 
    {
      "op": "tvm_op", 
      "name": "__mul_scalar__62", 
      "attrs": {
        "flatten_data": "0", 
        "func_name": "fuse_flatten___mul_scalar___2", 
        "num_inputs": "1", 
        "num_outputs": "1"
      }, 
      "inputs": [[344, 0, 0]]
    }, 
    {
      "op": "null", 
      "name": "387", 
      "inputs": []
    }, 
    {
      "op": "null", 
      "name": "__mul_scalar__63", 
      "inputs": []
    }, 
    {
      "op": "tvm_op", 
      "name": "sigmoid15", 
      "attrs": {
        "flatten_data": "0", 
        "func_name": "fuse_dense_sigmoid_2", 
        "num_inputs": "3", 
        "num_outputs": "1"
      }, 
      "inputs": [[345, 0, 0], [346, 0, 0], [347, 0, 0]]
    }, 
    {
      "op": "tvm_op", 
      "name": "elemwise_add15", 
      "attrs": {
        "flatten_data": "0", 
        "func_name": "fuse_reshape_broadcast_mul_elemwise_add_2", 
        "num_inputs": "3", 
        "num_outputs": "1"
      }, 
      "inputs": [[339, 0, 0], [348, 0, 0], [328, 0, 0]]
    }, 
    {
      "op": "null", 
      "name": "batch_norm52_gamma_mul_div_expand", 
      "inputs": []
    }, 
    {
      "op": "null", 
      "name": "batch_norm52_add_beta_expand", 
      "inputs": []
    }, 
    {
      "op": "tvm_op", 
      "name": "batch_norm52_out", 
      "attrs": {
        "flatten_data": "0", 
        "func_name": "fuse_broadcast_mul_broadcast_add_3", 
        "num_inputs": "3", 
        "num_outputs": "1"
      }, 
      "inputs": [[349, 0, 0], [350, 0, 0], [351, 0, 0]]
    }, 
    {
      "op": "null", 
      "name": "393", 
      "inputs": []
    }, 
    {
      "op": "null", 
      "name": "batch_norm53_gamma_mul_div_expand", 
      "inputs": []
    }, 
    {
      "op": "null", 
      "name": "batch_norm53_add_beta_expand", 
      "inputs": []
    }, 
    {
      "op": "tvm_op", 
      "name": "relu33", 
      "attrs": {
        "flatten_data": "0", 
        "func_name": "fuse_conv2d_broadcast_mul_broadcast_add_relu_6", 
        "num_inputs": "4", 
        "num_outputs": "1"
      }, 
      "inputs": [[352, 0, 0], [353, 0, 0], [354, 0, 0], [355, 0, 0]]
    }, 
    {
      "op": "null", 
      "name": "398", 
      "inputs": []
    }, 
    {
      "op": "null", 
      "name": "batch_norm54_gamma_mul_div_expand", 
      "inputs": []
    }, 
    {
      "op": "null", 
      "name": "batch_norm54_add_beta_expand", 
      "inputs": []
    }, 
    {
      "op": "tvm_op", 
      "name": "batch_norm54_out", 
      "attrs": {
        "flatten_data": "0", 
        "func_name": "fuse_conv2d_broadcast_mul_broadcast_add_5", 
        "num_inputs": "4", 
        "num_outputs": "1"
      }, 
      "inputs": [[356, 0, 0], [357, 0, 0], [358, 0, 0], [359, 0, 0]]
    }, 
    {
      "op": "tvm_op", 
      "name": "avg_pool2d16", 
      "attrs": {
        "flatten_data": "0", 
        "func_name": "fuse_avg_pool2d_2", 
        "num_inputs": "1", 
        "num_outputs": "1"
      }, 
      "inputs": [[360, 0, 0]]
    }, 
    {
      "op": "tvm_op", 
      "name": "__mul_scalar__64", 
      "attrs": {
        "flatten_data": "0", 
        "func_name": "fuse_flatten_flatten___mul_scalar___2", 
        "num_inputs": "1", 
        "num_outputs": "1"
      }, 
      "inputs": [[361, 0, 0]]
    }, 
    {
      "op": "null", 
      "name": "408", 
      "inputs": []
    }, 
    {
      "op": "null", 
      "name": "__mul_scalar__65", 
      "inputs": []
    }, 
    {
      "op": "tvm_op", 
      "name": "relu34", 
      "attrs": {
        "flatten_data": "0", 
        "func_name": "fuse_dense_relu_2", 
        "num_inputs": "3", 
        "num_outputs": "1"
      }, 
      "inputs": [[362, 0, 0], [363, 0, 0], [364, 0, 0]]
    }, 
    {
      "op": "tvm_op", 
      "name": "__mul_scalar__66", 
      "attrs": {
        "flatten_data": "0", 
        "func_name": "fuse_flatten___mul_scalar___2", 
        "num_inputs": "1", 
        "num_outputs": "1"
      }, 
      "inputs": [[365, 0, 0]]
    }, 
    {
      "op": "null", 
      "name": "410", 
      "inputs": []
    }, 
    {
      "op": "null", 
      "name": "__mul_scalar__67", 
      "inputs": []
    }, 
    {
      "op": "tvm_op", 
      "name": "sigmoid16", 
      "attrs": {
        "flatten_data": "0", 
        "func_name": "fuse_dense_sigmoid_2", 
        "num_inputs": "3", 
        "num_outputs": "1"
      }, 
      "inputs": [[366, 0, 0], [367, 0, 0], [368, 0, 0]]
    }, 
    {
      "op": "tvm_op", 
      "name": "elemwise_add16", 
      "attrs": {
        "flatten_data": "0", 
        "func_name": "fuse_reshape_broadcast_mul_elemwise_add_2", 
        "num_inputs": "3", 
        "num_outputs": "1"
      }, 
      "inputs": [[360, 0, 0], [369, 0, 0], [349, 0, 0]]
    }, 
    {
      "op": "null", 
      "name": "batch_norm55_gamma_mul_div_expand", 
      "inputs": []
    }, 
    {
      "op": "null", 
      "name": "batch_norm55_add_beta_expand", 
      "inputs": []
    }, 
    {
      "op": "tvm_op", 
      "name": "batch_norm55_out", 
      "attrs": {
        "flatten_data": "0", 
        "func_name": "fuse_broadcast_mul_broadcast_add_3", 
        "num_inputs": "3", 
        "num_outputs": "1"
      }, 
      "inputs": [[370, 0, 0], [371, 0, 0], [372, 0, 0]]
    }, 
    {
      "op": "null", 
      "name": "416", 
      "inputs": []
    }, 
    {
      "op": "null", 
      "name": "batch_norm56_gamma_mul_div_expand", 
      "inputs": []
    }, 
    {
      "op": "null", 
      "name": "batch_norm56_add_beta_expand", 
      "inputs": []
    }, 
    {
      "op": "tvm_op", 
      "name": "relu35", 
      "attrs": {
        "flatten_data": "0", 
        "func_name": "fuse_conv2d_broadcast_mul_broadcast_add_relu_6", 
        "num_inputs": "4", 
        "num_outputs": "1"
      }, 
      "inputs": [[373, 0, 0], [374, 0, 0], [375, 0, 0], [376, 0, 0]]
    }, 
    {
      "op": "null", 
      "name": "421", 
      "inputs": []
    }, 
    {
      "op": "null", 
      "name": "batch_norm57_gamma_mul_div_expand", 
      "inputs": []
    }, 
    {
      "op": "null", 
      "name": "batch_norm57_add_beta_expand", 
      "inputs": []
    }, 
    {
      "op": "tvm_op", 
      "name": "batch_norm57_out", 
      "attrs": {
        "flatten_data": "0", 
        "func_name": "fuse_conv2d_broadcast_mul_broadcast_add_5", 
        "num_inputs": "4", 
        "num_outputs": "1"
      }, 
      "inputs": [[377, 0, 0], [378, 0, 0], [379, 0, 0], [380, 0, 0]]
    }, 
    {
      "op": "tvm_op", 
      "name": "avg_pool2d17", 
      "attrs": {
        "flatten_data": "0", 
        "func_name": "fuse_avg_pool2d_2", 
        "num_inputs": "1", 
        "num_outputs": "1"
      }, 
      "inputs": [[381, 0, 0]]
    }, 
    {
      "op": "tvm_op", 
      "name": "__mul_scalar__68", 
      "attrs": {
        "flatten_data": "0", 
        "func_name": "fuse_flatten_flatten___mul_scalar___2", 
        "num_inputs": "1", 
        "num_outputs": "1"
      }, 
      "inputs": [[382, 0, 0]]
    }, 
    {
      "op": "null", 
      "name": "431", 
      "inputs": []
    }, 
    {
      "op": "null", 
      "name": "__mul_scalar__69", 
      "inputs": []
    }, 
    {
      "op": "tvm_op", 
      "name": "relu36", 
      "attrs": {
        "flatten_data": "0", 
        "func_name": "fuse_dense_relu_2", 
        "num_inputs": "3", 
        "num_outputs": "1"
      }, 
      "inputs": [[383, 0, 0], [384, 0, 0], [385, 0, 0]]
    }, 
    {
      "op": "tvm_op", 
      "name": "__mul_scalar__70", 
      "attrs": {
        "flatten_data": "0", 
        "func_name": "fuse_flatten___mul_scalar___2", 
        "num_inputs": "1", 
        "num_outputs": "1"
      }, 
      "inputs": [[386, 0, 0]]
    }, 
    {
      "op": "null", 
      "name": "433", 
      "inputs": []
    }, 
    {
      "op": "null", 
      "name": "__mul_scalar__71", 
      "inputs": []
    }, 
    {
      "op": "tvm_op", 
      "name": "sigmoid17", 
      "attrs": {
        "flatten_data": "0", 
        "func_name": "fuse_dense_sigmoid_2", 
        "num_inputs": "3", 
        "num_outputs": "1"
      }, 
      "inputs": [[387, 0, 0], [388, 0, 0], [389, 0, 0]]
    }, 
    {
      "op": "tvm_op", 
      "name": "elemwise_add17", 
      "attrs": {
        "flatten_data": "0", 
        "func_name": "fuse_reshape_broadcast_mul_elemwise_add_2", 
        "num_inputs": "3", 
        "num_outputs": "1"
      }, 
      "inputs": [[381, 0, 0], [390, 0, 0], [370, 0, 0]]
    }, 
    {
      "op": "null", 
      "name": "batch_norm58_gamma_mul_div_expand", 
      "inputs": []
    }, 
    {
      "op": "null", 
      "name": "batch_norm58_add_beta_expand", 
      "inputs": []
    }, 
    {
      "op": "tvm_op", 
      "name": "batch_norm58_out", 
      "attrs": {
        "flatten_data": "0", 
        "func_name": "fuse_broadcast_mul_broadcast_add_3", 
        "num_inputs": "3", 
        "num_outputs": "1"
      }, 
      "inputs": [[391, 0, 0], [392, 0, 0], [393, 0, 0]]
    }, 
    {
      "op": "null", 
      "name": "439", 
      "inputs": []
    }, 
    {
      "op": "null", 
      "name": "batch_norm59_gamma_mul_div_expand", 
      "inputs": []
    }, 
    {
      "op": "null", 
      "name": "batch_norm59_add_beta_expand", 
      "inputs": []
    }, 
    {
      "op": "tvm_op", 
      "name": "relu37", 
      "attrs": {
        "flatten_data": "0", 
        "func_name": "fuse_conv2d_broadcast_mul_broadcast_add_relu_6", 
        "num_inputs": "4", 
        "num_outputs": "1"
      }, 
      "inputs": [[394, 0, 0], [395, 0, 0], [396, 0, 0], [397, 0, 0]]
    }, 
    {
      "op": "null", 
      "name": "444", 
      "inputs": []
    }, 
    {
      "op": "null", 
      "name": "batch_norm60_gamma_mul_div_expand", 
      "inputs": []
    }, 
    {
      "op": "null", 
      "name": "batch_norm60_add_beta_expand", 
      "inputs": []
    }, 
    {
      "op": "tvm_op", 
      "name": "batch_norm60_out", 
      "attrs": {
        "flatten_data": "0", 
        "func_name": "fuse_conv2d_broadcast_mul_broadcast_add_5", 
        "num_inputs": "4", 
        "num_outputs": "1"
      }, 
      "inputs": [[398, 0, 0], [399, 0, 0], [400, 0, 0], [401, 0, 0]]
    }, 
    {
      "op": "tvm_op", 
      "name": "avg_pool2d18", 
      "attrs": {
        "flatten_data": "0", 
        "func_name": "fuse_avg_pool2d_2", 
        "num_inputs": "1", 
        "num_outputs": "1"
      }, 
      "inputs": [[402, 0, 0]]
    }, 
    {
      "op": "tvm_op", 
      "name": "__mul_scalar__72", 
      "attrs": {
        "flatten_data": "0", 
        "func_name": "fuse_flatten_flatten___mul_scalar___2", 
        "num_inputs": "1", 
        "num_outputs": "1"
      }, 
      "inputs": [[403, 0, 0]]
    }, 
    {
      "op": "null", 
      "name": "454", 
      "inputs": []
    }, 
    {
      "op": "null", 
      "name": "__mul_scalar__73", 
      "inputs": []
    }, 
    {
      "op": "tvm_op", 
      "name": "relu38", 
      "attrs": {
        "flatten_data": "0", 
        "func_name": "fuse_dense_relu_2", 
        "num_inputs": "3", 
        "num_outputs": "1"
      }, 
      "inputs": [[404, 0, 0], [405, 0, 0], [406, 0, 0]]
    }, 
    {
      "op": "tvm_op", 
      "name": "__mul_scalar__74", 
      "attrs": {
        "flatten_data": "0", 
        "func_name": "fuse_flatten___mul_scalar___2", 
        "num_inputs": "1", 
        "num_outputs": "1"
      }, 
      "inputs": [[407, 0, 0]]
    }, 
    {
      "op": "null", 
      "name": "456", 
      "inputs": []
    }, 
    {
      "op": "null", 
      "name": "__mul_scalar__75", 
      "inputs": []
    }, 
    {
      "op": "tvm_op", 
      "name": "sigmoid18", 
      "attrs": {
        "flatten_data": "0", 
        "func_name": "fuse_dense_sigmoid_2", 
        "num_inputs": "3", 
        "num_outputs": "1"
      }, 
      "inputs": [[408, 0, 0], [409, 0, 0], [410, 0, 0]]
    }, 
    {
      "op": "tvm_op", 
      "name": "elemwise_add18", 
      "attrs": {
        "flatten_data": "0", 
        "func_name": "fuse_reshape_broadcast_mul_elemwise_add_2", 
        "num_inputs": "3", 
        "num_outputs": "1"
      }, 
      "inputs": [[402, 0, 0], [411, 0, 0], [391, 0, 0]]
    }, 
    {
      "op": "null", 
      "name": "batch_norm61_gamma_mul_div_expand", 
      "inputs": []
    }, 
    {
      "op": "null", 
      "name": "batch_norm61_add_beta_expand", 
      "inputs": []
    }, 
    {
      "op": "tvm_op", 
      "name": "batch_norm61_out", 
      "attrs": {
        "flatten_data": "0", 
        "func_name": "fuse_broadcast_mul_broadcast_add_3", 
        "num_inputs": "3", 
        "num_outputs": "1"
      }, 
      "inputs": [[412, 0, 0], [413, 0, 0], [414, 0, 0]]
    }, 
    {
      "op": "null", 
      "name": "462", 
      "inputs": []
    }, 
    {
      "op": "null", 
      "name": "batch_norm62_gamma_mul_div_expand", 
      "inputs": []
    }, 
    {
      "op": "null", 
      "name": "batch_norm62_add_beta_expand", 
      "inputs": []
    }, 
    {
      "op": "tvm_op", 
      "name": "relu39", 
      "attrs": {
        "flatten_data": "0", 
        "func_name": "fuse_conv2d_broadcast_mul_broadcast_add_relu_6", 
        "num_inputs": "4", 
        "num_outputs": "1"
      }, 
      "inputs": [[415, 0, 0], [416, 0, 0], [417, 0, 0], [418, 0, 0]]
    }, 
    {
      "op": "null", 
      "name": "467", 
      "inputs": []
    }, 
    {
      "op": "null", 
      "name": "batch_norm63_gamma_mul_div_expand", 
      "inputs": []
    }, 
    {
      "op": "null", 
      "name": "batch_norm63_add_beta_expand", 
      "inputs": []
    }, 
    {
      "op": "tvm_op", 
      "name": "batch_norm63_out", 
      "attrs": {
        "flatten_data": "0", 
        "func_name": "fuse_conv2d_broadcast_mul_broadcast_add_5", 
        "num_inputs": "4", 
        "num_outputs": "1"
      }, 
      "inputs": [[419, 0, 0], [420, 0, 0], [421, 0, 0], [422, 0, 0]]
    }, 
    {
      "op": "tvm_op", 
      "name": "avg_pool2d19", 
      "attrs": {
        "flatten_data": "0", 
        "func_name": "fuse_avg_pool2d_2", 
        "num_inputs": "1", 
        "num_outputs": "1"
      }, 
      "inputs": [[423, 0, 0]]
    }, 
    {
      "op": "tvm_op", 
      "name": "__mul_scalar__76", 
      "attrs": {
        "flatten_data": "0", 
        "func_name": "fuse_flatten_flatten___mul_scalar___2", 
        "num_inputs": "1", 
        "num_outputs": "1"
      }, 
      "inputs": [[424, 0, 0]]
    }, 
    {
      "op": "null", 
      "name": "477", 
      "inputs": []
    }, 
    {
      "op": "null", 
      "name": "__mul_scalar__77", 
      "inputs": []
    }, 
    {
      "op": "tvm_op", 
      "name": "relu40", 
      "attrs": {
        "flatten_data": "0", 
        "func_name": "fuse_dense_relu_2", 
        "num_inputs": "3", 
        "num_outputs": "1"
      }, 
      "inputs": [[425, 0, 0], [426, 0, 0], [427, 0, 0]]
    }, 
    {
      "op": "tvm_op", 
      "name": "__mul_scalar__78", 
      "attrs": {
        "flatten_data": "0", 
        "func_name": "fuse_flatten___mul_scalar___2", 
        "num_inputs": "1", 
        "num_outputs": "1"
      }, 
      "inputs": [[428, 0, 0]]
    }, 
    {
      "op": "null", 
      "name": "479", 
      "inputs": []
    }, 
    {
      "op": "null", 
      "name": "__mul_scalar__79", 
      "inputs": []
    }, 
    {
      "op": "tvm_op", 
      "name": "sigmoid19", 
      "attrs": {
        "flatten_data": "0", 
        "func_name": "fuse_dense_sigmoid_2", 
        "num_inputs": "3", 
        "num_outputs": "1"
      }, 
      "inputs": [[429, 0, 0], [430, 0, 0], [431, 0, 0]]
    }, 
    {
      "op": "tvm_op", 
      "name": "elemwise_add19", 
      "attrs": {
        "flatten_data": "0", 
        "func_name": "fuse_reshape_broadcast_mul_elemwise_add_2", 
        "num_inputs": "3", 
        "num_outputs": "1"
      }, 
      "inputs": [[423, 0, 0], [432, 0, 0], [412, 0, 0]]
    }, 
    {
      "op": "null", 
      "name": "batch_norm64_gamma_mul_div_expand", 
      "inputs": []
    }, 
    {
      "op": "null", 
      "name": "batch_norm64_add_beta_expand", 
      "inputs": []
    }, 
    {
      "op": "tvm_op", 
      "name": "batch_norm64_out", 
      "attrs": {
        "flatten_data": "0", 
        "func_name": "fuse_broadcast_mul_broadcast_add_3", 
        "num_inputs": "3", 
        "num_outputs": "1"
      }, 
      "inputs": [[433, 0, 0], [434, 0, 0], [435, 0, 0]]
    }, 
    {
      "op": "null", 
      "name": "485", 
      "inputs": []
    }, 
    {
      "op": "null", 
      "name": "batch_norm65_gamma_mul_div_expand", 
      "inputs": []
    }, 
    {
      "op": "null", 
      "name": "batch_norm65_add_beta_expand", 
      "inputs": []
    }, 
    {
      "op": "tvm_op", 
      "name": "relu41", 
      "attrs": {
        "flatten_data": "0", 
        "func_name": "fuse_conv2d_broadcast_mul_broadcast_add_relu_6", 
        "num_inputs": "4", 
        "num_outputs": "1"
      }, 
      "inputs": [[436, 0, 0], [437, 0, 0], [438, 0, 0], [439, 0, 0]]
    }, 
    {
      "op": "null", 
      "name": "490", 
      "inputs": []
    }, 
    {
      "op": "null", 
      "name": "batch_norm66_gamma_mul_div_expand", 
      "inputs": []
    }, 
    {
      "op": "null", 
      "name": "batch_norm66_add_beta_expand", 
      "inputs": []
    }, 
    {
      "op": "tvm_op", 
      "name": "batch_norm66_out", 
      "attrs": {
        "flatten_data": "0", 
        "func_name": "fuse_conv2d_broadcast_mul_broadcast_add_5", 
        "num_inputs": "4", 
        "num_outputs": "1"
      }, 
      "inputs": [[440, 0, 0], [441, 0, 0], [442, 0, 0], [443, 0, 0]]
    }, 
    {
      "op": "tvm_op", 
      "name": "avg_pool2d20", 
      "attrs": {
        "flatten_data": "0", 
        "func_name": "fuse_avg_pool2d_2", 
        "num_inputs": "1", 
        "num_outputs": "1"
      }, 
      "inputs": [[444, 0, 0]]
    }, 
    {
      "op": "tvm_op", 
      "name": "__mul_scalar__80", 
      "attrs": {
        "flatten_data": "0", 
        "func_name": "fuse_flatten_flatten___mul_scalar___2", 
        "num_inputs": "1", 
        "num_outputs": "1"
      }, 
      "inputs": [[445, 0, 0]]
    }, 
    {
      "op": "null", 
      "name": "500", 
      "inputs": []
    }, 
    {
      "op": "null", 
      "name": "__mul_scalar__81", 
      "inputs": []
    }, 
    {
      "op": "tvm_op", 
      "name": "relu42", 
      "attrs": {
        "flatten_data": "0", 
        "func_name": "fuse_dense_relu_2", 
        "num_inputs": "3", 
        "num_outputs": "1"
      }, 
      "inputs": [[446, 0, 0], [447, 0, 0], [448, 0, 0]]
    }, 
    {
      "op": "tvm_op", 
      "name": "__mul_scalar__82", 
      "attrs": {
        "flatten_data": "0", 
        "func_name": "fuse_flatten___mul_scalar___2", 
        "num_inputs": "1", 
        "num_outputs": "1"
      }, 
      "inputs": [[449, 0, 0]]
    }, 
    {
      "op": "null", 
      "name": "502", 
      "inputs": []
    }, 
    {
      "op": "null", 
      "name": "__mul_scalar__83", 
      "inputs": []
    }, 
    {
      "op": "tvm_op", 
      "name": "sigmoid20", 
      "attrs": {
        "flatten_data": "0", 
        "func_name": "fuse_dense_sigmoid_2", 
        "num_inputs": "3", 
        "num_outputs": "1"
      }, 
      "inputs": [[450, 0, 0], [451, 0, 0], [452, 0, 0]]
    }, 
    {
      "op": "tvm_op", 
      "name": "elemwise_add20", 
      "attrs": {
        "flatten_data": "0", 
        "func_name": "fuse_reshape_broadcast_mul_elemwise_add_2", 
        "num_inputs": "3", 
        "num_outputs": "1"
      }, 
      "inputs": [[444, 0, 0], [453, 0, 0], [433, 0, 0]]
    }, 
    {
      "op": "null", 
      "name": "batch_norm67_gamma_mul_div_expand", 
      "inputs": []
    }, 
    {
      "op": "null", 
      "name": "batch_norm67_add_beta_expand", 
      "inputs": []
    }, 
    {
      "op": "tvm_op", 
      "name": "batch_norm67_out", 
      "attrs": {
        "flatten_data": "0", 
        "func_name": "fuse_broadcast_mul_broadcast_add_3", 
        "num_inputs": "3", 
        "num_outputs": "1"
      }, 
      "inputs": [[454, 0, 0], [455, 0, 0], [456, 0, 0]]
    }, 
    {
      "op": "null", 
      "name": "508", 
      "inputs": []
    }, 
    {
      "op": "null", 
      "name": "batch_norm68_gamma_mul_div_expand", 
      "inputs": []
    }, 
    {
      "op": "null", 
      "name": "batch_norm68_add_beta_expand", 
      "inputs": []
    }, 
    {
      "op": "tvm_op", 
      "name": "relu43", 
      "attrs": {
        "flatten_data": "0", 
        "func_name": "fuse_conv2d_broadcast_mul_broadcast_add_relu_7", 
        "num_inputs": "4", 
        "num_outputs": "1"
      }, 
      "inputs": [[457, 0, 0], [458, 0, 0], [459, 0, 0], [460, 0, 0]]
    }, 
    {
      "op": "null", 
      "name": "513", 
      "inputs": []
    }, 
    {
      "op": "null", 
      "name": "batch_norm69_gamma_mul_div_expand", 
      "inputs": []
    }, 
    {
      "op": "null", 
      "name": "batch_norm69_add_beta_expand", 
      "inputs": []
    }, 
    {
      "op": "tvm_op", 
      "name": "batch_norm69_out", 
      "attrs": {
        "flatten_data": "0", 
        "func_name": "fuse_conv2d_broadcast_mul_broadcast_add_6", 
        "num_inputs": "4", 
        "num_outputs": "1"
      }, 
      "inputs": [[461, 0, 0], [462, 0, 0], [463, 0, 0], [464, 0, 0]]
    }, 
    {
      "op": "tvm_op", 
      "name": "avg_pool2d21", 
      "attrs": {
        "flatten_data": "0", 
        "func_name": "fuse_avg_pool2d_3", 
        "num_inputs": "1", 
        "num_outputs": "1"
      }, 
      "inputs": [[465, 0, 0]]
    }, 
    {
      "op": "tvm_op", 
      "name": "__mul_scalar__84", 
      "attrs": {
        "flatten_data": "0", 
        "func_name": "fuse_flatten_flatten___mul_scalar___3", 
        "num_inputs": "1", 
        "num_outputs": "1"
      }, 
      "inputs": [[466, 0, 0]]
    }, 
    {
      "op": "null", 
      "name": "528", 
      "inputs": []
    }, 
    {
      "op": "null", 
      "name": "__mul_scalar__85", 
      "inputs": []
    }, 
    {
      "op": "tvm_op", 
      "name": "relu44", 
      "attrs": {
        "flatten_data": "0", 
        "func_name": "fuse_dense_relu_3", 
        "num_inputs": "3", 
        "num_outputs": "1"
      }, 
      "inputs": [[467, 0, 0], [468, 0, 0], [469, 0, 0]]
    }, 
    {
      "op": "tvm_op", 
      "name": "__mul_scalar__86", 
      "attrs": {
        "flatten_data": "0", 
        "func_name": "fuse_flatten___mul_scalar___3", 
        "num_inputs": "1", 
        "num_outputs": "1"
      }, 
      "inputs": [[470, 0, 0]]
    }, 
    {
      "op": "null", 
      "name": "530", 
      "inputs": []
    }, 
    {
      "op": "null", 
      "name": "__mul_scalar__87", 
      "inputs": []
    }, 
    {
      "op": "tvm_op", 
      "name": "sigmoid21", 
      "attrs": {
        "flatten_data": "0", 
        "func_name": "fuse_dense_sigmoid_3", 
        "num_inputs": "3", 
        "num_outputs": "1"
      }, 
      "inputs": [[471, 0, 0], [472, 0, 0], [473, 0, 0]]
    }, 
    {
      "op": "null", 
      "name": "523", 
      "inputs": []
    }, 
    {
      "op": "null", 
      "name": "batch_norm70_gamma_mul_div_expand", 
      "inputs": []
    }, 
    {
      "op": "null", 
      "name": "batch_norm70_add_beta_expand", 
      "inputs": []
    }, 
    {
      "op": "tvm_op", 
      "name": "elemwise_add21", 
      "attrs": {
        "flatten_data": "0", 
        "func_name": "fuse_reshape_broadcast_mul_conv2d_broadcast_mul_broadcast_add_elemwise_add_3", 
        "num_inputs": "6", 
        "num_outputs": "1"
      }, 
      "inputs": [[465, 0, 0], [474, 0, 0], [454, 0, 0], [475, 0, 0], [476, 0, 0], [477, 0, 0]]
    }, 
    {
      "op": "null", 
      "name": "batch_norm71_gamma_mul_div_expand", 
      "inputs": []
    }, 
    {
      "op": "null", 
      "name": "batch_norm71_add_beta_expand", 
      "inputs": []
    }, 
    {
      "op": "tvm_op", 
      "name": "batch_norm71_out", 
      "attrs": {
        "flatten_data": "0", 
        "func_name": "fuse_broadcast_mul_broadcast_add_4", 
        "num_inputs": "3", 
        "num_outputs": "1"
      }, 
      "inputs": [[478, 0, 0], [479, 0, 0], [480, 0, 0]]
    }, 
    {
      "op": "null", 
      "name": "536", 
      "inputs": []
    }, 
    {
      "op": "null", 
      "name": "batch_norm72_gamma_mul_div_expand", 
      "inputs": []
    }, 
    {
      "op": "null", 
      "name": "batch_norm72_add_beta_expand", 
      "inputs": []
    }, 
    {
      "op": "tvm_op", 
      "name": "relu45", 
      "attrs": {
        "flatten_data": "0", 
        "func_name": "fuse_conv2d_broadcast_mul_broadcast_add_relu_8", 
        "num_inputs": "4", 
        "num_outputs": "1"
      }, 
      "inputs": [[481, 0, 0], [482, 0, 0], [483, 0, 0], [484, 0, 0]]
    }, 
    {
      "op": "null", 
      "name": "541", 
      "inputs": []
    }, 
    {
      "op": "null", 
      "name": "batch_norm73_gamma_mul_div_expand", 
      "inputs": []
    }, 
    {
      "op": "null", 
      "name": "batch_norm73_add_beta_expand", 
      "inputs": []
    }, 
    {
      "op": "tvm_op", 
      "name": "batch_norm73_out", 
      "attrs": {
        "flatten_data": "0", 
        "func_name": "fuse_conv2d_broadcast_mul_broadcast_add_7", 
        "num_inputs": "4", 
        "num_outputs": "1"
      }, 
      "inputs": [[485, 0, 0], [486, 0, 0], [487, 0, 0], [488, 0, 0]]
    }, 
    {
      "op": "tvm_op", 
      "name": "avg_pool2d22", 
      "attrs": {
        "flatten_data": "0", 
        "func_name": "fuse_avg_pool2d_3", 
        "num_inputs": "1", 
        "num_outputs": "1"
      }, 
      "inputs": [[489, 0, 0]]
    }, 
    {
      "op": "tvm_op", 
      "name": "__mul_scalar__88", 
      "attrs": {
        "flatten_data": "0", 
        "func_name": "fuse_flatten_flatten___mul_scalar___3", 
        "num_inputs": "1", 
        "num_outputs": "1"
      }, 
      "inputs": [[490, 0, 0]]
    }, 
    {
      "op": "null", 
      "name": "551", 
      "inputs": []
    }, 
    {
      "op": "null", 
      "name": "__mul_scalar__89", 
      "inputs": []
    }, 
    {
      "op": "tvm_op", 
      "name": "relu46", 
      "attrs": {
        "flatten_data": "0", 
        "func_name": "fuse_dense_relu_3", 
        "num_inputs": "3", 
        "num_outputs": "1"
      }, 
      "inputs": [[491, 0, 0], [492, 0, 0], [493, 0, 0]]
    }, 
    {
      "op": "tvm_op", 
      "name": "__mul_scalar__90", 
      "attrs": {
        "flatten_data": "0", 
        "func_name": "fuse_flatten___mul_scalar___3", 
        "num_inputs": "1", 
        "num_outputs": "1"
      }, 
      "inputs": [[494, 0, 0]]
    }, 
    {
      "op": "null", 
      "name": "553", 
      "inputs": []
    }, 
    {
      "op": "null", 
      "name": "__mul_scalar__91", 
      "inputs": []
    }, 
    {
      "op": "tvm_op", 
      "name": "sigmoid22", 
      "attrs": {
        "flatten_data": "0", 
        "func_name": "fuse_dense_sigmoid_3", 
        "num_inputs": "3", 
        "num_outputs": "1"
      }, 
      "inputs": [[495, 0, 0], [496, 0, 0], [497, 0, 0]]
    }, 
    {
      "op": "tvm_op", 
      "name": "elemwise_add22", 
      "attrs": {
        "flatten_data": "0", 
        "func_name": "fuse_reshape_broadcast_mul_elemwise_add_3", 
        "num_inputs": "3", 
        "num_outputs": "1"
      }, 
      "inputs": [[489, 0, 0], [498, 0, 0], [478, 0, 0]]
    }, 
    {
      "op": "null", 
      "name": "batch_norm74_gamma_mul_div_expand", 
      "inputs": []
    }, 
    {
      "op": "null", 
      "name": "batch_norm74_add_beta_expand", 
      "inputs": []
    }, 
    {
      "op": "tvm_op", 
      "name": "batch_norm74_out", 
      "attrs": {
        "flatten_data": "0", 
        "func_name": "fuse_broadcast_mul_broadcast_add_4", 
        "num_inputs": "3", 
        "num_outputs": "1"
      }, 
      "inputs": [[499, 0, 0], [500, 0, 0], [501, 0, 0]]
    }, 
    {
      "op": "null", 
      "name": "559", 
      "inputs": []
    }, 
    {
      "op": "null", 
      "name": "batch_norm75_gamma_mul_div_expand", 
      "inputs": []
    }, 
    {
      "op": "null", 
      "name": "batch_norm75_add_beta_expand", 
      "inputs": []
    }, 
    {
      "op": "tvm_op", 
      "name": "relu47", 
      "attrs": {
        "flatten_data": "0", 
        "func_name": "fuse_conv2d_broadcast_mul_broadcast_add_relu_8", 
        "num_inputs": "4", 
        "num_outputs": "1"
      }, 
      "inputs": [[502, 0, 0], [503, 0, 0], [504, 0, 0], [505, 0, 0]]
    }, 
    {
      "op": "null", 
      "name": "564", 
      "inputs": []
    }, 
    {
      "op": "null", 
      "name": "batch_norm76_gamma_mul_div_expand", 
      "inputs": []
    }, 
    {
      "op": "null", 
      "name": "batch_norm76_add_beta_expand", 
      "inputs": []
    }, 
    {
      "op": "tvm_op", 
      "name": "batch_norm76_out", 
      "attrs": {
        "flatten_data": "0", 
        "func_name": "fuse_conv2d_broadcast_mul_broadcast_add_7", 
        "num_inputs": "4", 
        "num_outputs": "1"
      }, 
      "inputs": [[506, 0, 0], [507, 0, 0], [508, 0, 0], [509, 0, 0]]
    }, 
    {
      "op": "tvm_op", 
      "name": "avg_pool2d23", 
      "attrs": {
        "flatten_data": "0", 
        "func_name": "fuse_avg_pool2d_3", 
        "num_inputs": "1", 
        "num_outputs": "1"
      }, 
      "inputs": [[510, 0, 0]]
    }, 
    {
      "op": "tvm_op", 
      "name": "__mul_scalar__92", 
      "attrs": {
        "flatten_data": "0", 
        "func_name": "fuse_flatten_flatten___mul_scalar___3", 
        "num_inputs": "1", 
        "num_outputs": "1"
      }, 
      "inputs": [[511, 0, 0]]
    }, 
    {
      "op": "null", 
      "name": "574", 
      "inputs": []
    }, 
    {
      "op": "null", 
      "name": "__mul_scalar__93", 
      "inputs": []
    }, 
    {
      "op": "tvm_op", 
      "name": "relu48", 
      "attrs": {
        "flatten_data": "0", 
        "func_name": "fuse_dense_relu_3", 
        "num_inputs": "3", 
        "num_outputs": "1"
      }, 
      "inputs": [[512, 0, 0], [513, 0, 0], [514, 0, 0]]
    }, 
    {
      "op": "tvm_op", 
      "name": "__mul_scalar__94", 
      "attrs": {
        "flatten_data": "0", 
        "func_name": "fuse_flatten___mul_scalar___3", 
        "num_inputs": "1", 
        "num_outputs": "1"
      }, 
      "inputs": [[515, 0, 0]]
    }, 
    {
      "op": "null", 
      "name": "576", 
      "inputs": []
    }, 
    {
      "op": "null", 
      "name": "__mul_scalar__95", 
      "inputs": []
    }, 
    {
      "op": "tvm_op", 
      "name": "sigmoid23", 
      "attrs": {
        "flatten_data": "0", 
        "func_name": "fuse_dense_sigmoid_3", 
        "num_inputs": "3", 
        "num_outputs": "1"
      }, 
      "inputs": [[516, 0, 0], [517, 0, 0], [518, 0, 0]]
    }, 
    {
      "op": "null", 
      "name": "batch_norm77_gamma_mul_div_expand", 
      "inputs": []
    }, 
    {
      "op": "null", 
      "name": "batch_norm77_add_beta_expand", 
      "inputs": []
    }, 
    {
      "op": "tvm_op", 
      "name": "__mul_scalar__96", 
      "attrs": {
        "flatten_data": "0", 
        "func_name": "fuse_reshape_broadcast_mul_elemwise_add_broadcast_mul_broadcast_add_flatten_flatten___mul_scalar__", 
        "num_inputs": "5", 
        "num_outputs": "1"
      }, 
      "inputs": [[510, 0, 0], [519, 0, 0], [499, 0, 0], [520, 0, 0], [521, 0, 0]]
    }, 
    {
      "op": "null", 
      "name": "584", 
      "inputs": []
    }, 
    {
      "op": "null", 
      "name": "__mul_scalar__97", 
      "inputs": []
    }, 
    {
      "op": "null", 
      "name": "batch_norm78_moving_var", 
      "inputs": []
    }, 
    {
      "op": "null", 
      "name": "582", 
      "inputs": []
    }, 
    {
      "op": "tvm_op", 
      "name": "batch_norm78_gamma_mul_div", 
      "attrs": {
        "flatten_data": "1", 
        "func_name": "fuse___add_scalar___sqrt___rdiv_scalar___elemwise_mul", 
        "num_inputs": "2", 
        "num_outputs": "1"
      }, 
      "inputs": [[525, 0, 1], [526, 0, 0]]
    }, 
    {
      "op": "null", 
      "name": "batch_norm78_moving_mean", 
      "inputs": []
    }, 
    {
      "op": "null", 
      "name": "583", 
      "inputs": []
    }, 
    {
      "op": "tvm_op", 
      "name": "batch_norm78_out", 
      "attrs": {
        "flatten_data": "0", 
        "func_name": "fuse_dense_broadcast_mul_negative_elemwise_mul_elemwise_add_broadcast_add", 
        "num_inputs": "6", 
        "num_outputs": "1"
      }, 
      "inputs": [[522, 0, 0], [523, 0, 0], [524, 0, 0], [527, 0, 0], [528, 0, 1], [529, 0, 0]]
    }
  ], 
  "arg_nodes": [
    0, 
    1, 
    2, 
    3, 
    5, 
    6, 
    8, 
    9, 
    10, 
    12, 
    13, 
    14, 
    18, 
    19, 
    22, 
    23, 
    25, 
    26, 
    27, 
    29, 
    30, 
    32, 
    33, 
    34, 
    36, 
    37, 
    38, 
    42, 
    43, 
    46, 
    47, 
    50, 
    51, 
    53, 
    54, 
    55, 
    57, 
    58, 
    59, 
    63, 
    64, 
    67, 
    68, 
    71, 
    72, 
    74, 
    75, 
    76, 
    78, 
    79, 
    80, 
    84, 
    85, 
    88, 
    89, 
    91, 
    92, 
    93, 
    95, 
    96, 
    98, 
    99, 
    100, 
    102, 
    103, 
    104, 
    108, 
    109, 
    112, 
    113, 
    116, 
    117, 
    119, 
    120, 
    121, 
    123, 
    124, 
    125, 
    129, 
    130, 
    133, 
    134, 
    137, 
    138, 
    140, 
    141, 
    142, 
    144, 
    145, 
    146, 
    150, 
    151, 
    154, 
    155, 
    158, 
    159, 
    161, 
    162, 
    163, 
    165, 
    166, 
    167, 
    171, 
    172, 
    175, 
    176, 
    178, 
    179, 
    180, 
    182, 
    183, 
    185, 
    186, 
    187, 
    189, 
    190, 
    191, 
    195, 
    196, 
    199, 
    200, 
    203, 
    204, 
    206, 
    207, 
    208, 
    210, 
    211, 
    212, 
    216, 
    217, 
    220, 
    221, 
    224, 
    225, 
    227, 
    228, 
    229, 
    231, 
    232, 
    233, 
    237, 
    238, 
    241, 
    242, 
    245, 
    246, 
    248, 
    249, 
    250, 
    252, 
    253, 
    254, 
    258, 
    259, 
    262, 
    263, 
    266, 
    267, 
    269, 
    270, 
    271, 
    273, 
    274, 
    275, 
    279, 
    280, 
    283, 
    284, 
    287, 
    288, 
    290, 
    291, 
    292, 
    294, 
    295, 
    296, 
    300, 
    301, 
    304, 
    305, 
    308, 
    309, 
    311, 
    312, 
    313, 
    315, 
    316, 
    317, 
    321, 
    322, 
    325, 
    326, 
    329, 
    330, 
    332, 
    333, 
    334, 
    336, 
    337, 
    338, 
    342, 
    343, 
    346, 
    347, 
    350, 
    351, 
    353, 
    354, 
    355, 
    357, 
    358, 
    359, 
    363, 
    364, 
    367, 
    368, 
    371, 
    372, 
    374, 
    375, 
    376, 
    378, 
    379, 
    380, 
    384, 
    385, 
    388, 
    389, 
    392, 
    393, 
    395, 
    396, 
    397, 
    399, 
    400, 
    401, 
    405, 
    406, 
    409, 
    410, 
    413, 
    414, 
    416, 
    417, 
    418, 
    420, 
    421, 
    422, 
    426, 
    427, 
    430, 
    431, 
    434, 
    435, 
    437, 
    438, 
    439, 
    441, 
    442, 
    443, 
    447, 
    448, 
    451, 
    452, 
    455, 
    456, 
    458, 
    459, 
    460, 
    462, 
    463, 
    464, 
    468, 
    469, 
    472, 
    473, 
    475, 
    476, 
    477, 
    479, 
    480, 
    482, 
    483, 
    484, 
    486, 
    487, 
    488, 
    492, 
    493, 
    496, 
    497, 
    500, 
    501, 
    503, 
    504, 
    505, 
    507, 
    508, 
    509, 
    513, 
    514, 
    517, 
    518, 
    520, 
    521, 
    523, 
    524, 
    525, 
    526, 
    528, 
    529
  ], 
  "node_row_ptr": [
    0, 
    1, 
    2, 
    3, 
    4, 
    5, 
    6, 
    7, 
    8, 
    9, 
    10, 
    11, 
    12, 
    13, 
    14, 
    15, 
    16, 
    17, 
    18, 
    19, 
    20, 
    21, 
    22, 
    23, 
    24, 
    25, 
    26, 
    27, 
    28, 
    29, 
    30, 
    31, 
    32, 
    33, 
    34, 
    35, 
    36, 
    37, 
    38, 
    39, 
    40, 
    41, 
    42, 
    43, 
    44, 
    45, 
    46, 
    47, 
    48, 
    49, 
    50, 
    51, 
    52, 
    53, 
    54, 
    55, 
    56, 
    57, 
    58, 
    59, 
    60, 
    61, 
    62, 
    63, 
    64, 
    65, 
    66, 
    67, 
    68, 
    69, 
    70, 
    71, 
    72, 
    73, 
    74, 
    75, 
    76, 
    77, 
    78, 
    79, 
    80, 
    81, 
    82, 
    83, 
    84, 
    85, 
    86, 
    87, 
    88, 
    89, 
    90, 
    91, 
    92, 
    93, 
    94, 
    95, 
    96, 
    97, 
    98, 
    99, 
    100, 
    101, 
    102, 
    103, 
    104, 
    105, 
    106, 
    107, 
    108, 
    109, 
    110, 
    111, 
    112, 
    113, 
    114, 
    115, 
    116, 
    117, 
    118, 
    119, 
    120, 
    121, 
    122, 
    123, 
    124, 
    125, 
    126, 
    127, 
    128, 
    129, 
    130, 
    131, 
    132, 
    133, 
    134, 
    135, 
    136, 
    137, 
    138, 
    139, 
    140, 
    141, 
    142, 
    143, 
    144, 
    145, 
    146, 
    147, 
    148, 
    149, 
    150, 
    151, 
    152, 
    153, 
    154, 
    155, 
    156, 
    157, 
    158, 
    159, 
    160, 
    161, 
    162, 
    163, 
    164, 
    165, 
    166, 
    167, 
    168, 
    169, 
    170, 
    171, 
    172, 
    173, 
    174, 
    175, 
    176, 
    177, 
    178, 
    179, 
    180, 
    181, 
    182, 
    183, 
    184, 
    185, 
    186, 
    187, 
    188, 
    189, 
    190, 
    191, 
    192, 
    193, 
    194, 
    195, 
    196, 
    197, 
    198, 
    199, 
    200, 
    201, 
    202, 
    203, 
    204, 
    205, 
    206, 
    207, 
    208, 
    209, 
    210, 
    211, 
    212, 
    213, 
    214, 
    215, 
    216, 
    217, 
    218, 
    219, 
    220, 
    221, 
    222, 
    223, 
    224, 
    225, 
    226, 
    227, 
    228, 
    229, 
    230, 
    231, 
    232, 
    233, 
    234, 
    235, 
    236, 
    237, 
    238, 
    239, 
    240, 
    241, 
    242, 
    243, 
    244, 
    245, 
    246, 
    247, 
    248, 
    249, 
    250, 
    251, 
    252, 
    253, 
    254, 
    255, 
    256, 
    257, 
    258, 
    259, 
    260, 
    261, 
    262, 
    263, 
    264, 
    265, 
    266, 
    267, 
    268, 
    269, 
    270, 
    271, 
    272, 
    273, 
    274, 
    275, 
    276, 
    277, 
    278, 
    279, 
    280, 
    281, 
    282, 
    283, 
    284, 
    285, 
    286, 
    287, 
    288, 
    289, 
    290, 
    291, 
    292, 
    293, 
    294, 
    295, 
    296, 
    297, 
    298, 
    299, 
    300, 
    301, 
    302, 
    303, 
    304, 
    305, 
    306, 
    307, 
    308, 
    309, 
    310, 
    311, 
    312, 
    313, 
    314, 
    315, 
    316, 
    317, 
    318, 
    319, 
    320, 
    321, 
    322, 
    323, 
    324, 
    325, 
    326, 
    327, 
    328, 
    329, 
    330, 
    331, 
    332, 
    333, 
    334, 
    335, 
    336, 
    337, 
    338, 
    339, 
    340, 
    341, 
    342, 
    343, 
    344, 
    345, 
    346, 
    347, 
    348, 
    349, 
    350, 
    351, 
    352, 
    353, 
    354, 
    355, 
    356, 
    357, 
    358, 
    359, 
    360, 
    361, 
    362, 
    363, 
    364, 
    365, 
    366, 
    367, 
    368, 
    369, 
    370, 
    371, 
    372, 
    373, 
    374, 
    375, 
    376, 
    377, 
    378, 
    379, 
    380, 
    381, 
    382, 
    383, 
    384, 
    385, 
    386, 
    387, 
    388, 
    389, 
    390, 
    391, 
    392, 
    393, 
    394, 
    395, 
    396, 
    397, 
    398, 
    399, 
    400, 
    401, 
    402, 
    403, 
    404, 
    405, 
    406, 
    407, 
    408, 
    409, 
    410, 
    411, 
    412, 
    413, 
    414, 
    415, 
    416, 
    417, 
    418, 
    419, 
    420, 
    421, 
    422, 
    423, 
    424, 
    425, 
    426, 
    427, 
    428, 
    429, 
    430, 
    431, 
    432, 
    433, 
    434, 
    435, 
    436, 
    437, 
    438, 
    439, 
    440, 
    441, 
    442, 
    443, 
    444, 
    445, 
    446, 
    447, 
    448, 
    449, 
    450, 
    451, 
    452, 
    453, 
    454, 
    455, 
    456, 
    457, 
    458, 
    459, 
    460, 
    461, 
    462, 
    463, 
    464, 
    465, 
    466, 
    467, 
    468, 
    469, 
    470, 
    471, 
    472, 
    473, 
    474, 
    475, 
    476, 
    477, 
    478, 
    479, 
    480, 
    481, 
    482, 
    483, 
    484, 
    485, 
    486, 
    487, 
    488, 
    489, 
    490, 
    491, 
    492, 
    493, 
    494, 
    495, 
    496, 
    497, 
    498, 
    499, 
    500, 
    501, 
    502, 
    503, 
    504, 
    505, 
    506, 
    507, 
    508, 
    509, 
    510, 
    511, 
    512, 
    513, 
    514, 
    515, 
    516, 
    517, 
    518, 
    519, 
    520, 
    521, 
    522, 
    523, 
    524, 
    525, 
    526, 
    527, 
    528, 
    529, 
    530, 
    531
  ], 
  "heads": [[530, 0, 0]], 
  "attrs": {
    "storage_id": ["list_int", [
        8, 
        9, 
        10, 
        11, 
        0, 
        12, 
        13, 
        1, 
        14, 
        15, 
        16, 
        2, 
        17, 
        18, 
        19, 
        1, 
        3, 
        4, 
        20, 
        21, 
        3, 
        4, 
        22, 
        23, 
        3, 
        24, 
        25, 
        26, 
        2, 
        27, 
        28, 
        1, 
        29, 
        30, 
        31, 
        0, 
        32, 
        33, 
        34, 
        1, 
        4, 
        3, 
        35, 
        36, 
        4, 
        3, 
        37, 
        38, 
        4, 
        0, 
        39, 
        40, 
        1, 
        41, 
        42, 
        43, 
        2, 
        44, 
        45, 
        46, 
        1, 
        3, 
        4, 
        47, 
        48, 
        3, 
        4, 
        49, 
        50, 
        3, 
        2, 
        51, 
        52, 
        1, 
        53, 
        54, 
        55, 
        0, 
        56, 
        57, 
        58, 
        1, 
        3, 
        4, 
        59, 
        60, 
        3, 
        4, 
        61, 
        62, 
        3, 
        63, 
        64, 
        65, 
        0, 
        66, 
        67, 
        1, 
        68, 
        69, 
        70, 
        2, 
        71, 
        72, 
        73, 
        1, 
        4, 
        3, 
        74, 
        75, 
        4, 
        3, 
        76, 
        77, 
        4, 
        2, 
        78, 
        79, 
        1, 
        80, 
        81, 
        82, 
        0, 
        83, 
        84, 
        85, 
        1, 
        3, 
        4, 
        86, 
        87, 
        3, 
        4, 
        88, 
        89, 
        3, 
        0, 
        90, 
        91, 
        1, 
        92, 
        93, 
        94, 
        2, 
        95, 
        96, 
        97, 
        1, 
        4, 
        3, 
        98, 
        99, 
        4, 
        3, 
        100, 
        101, 
        4, 
        2, 
        102, 
        103, 
        1, 
        104, 
        105, 
        106, 
        0, 
        107, 
        108, 
        109, 
        1, 
        4, 
        3, 
        110, 
        111, 
        4, 
        3, 
        112, 
        113, 
        4, 
        114, 
        115, 
        116, 
        0, 
        117, 
        118, 
        1, 
        119, 
        120, 
        121, 
        2, 
        122, 
        123, 
        124, 
        1, 
        3, 
        4, 
        125, 
        126, 
        3, 
        4, 
        127, 
        128, 
        3, 
        2, 
        129, 
        130, 
        1, 
        131, 
        132, 
        133, 
        0, 
        134, 
        135, 
        136, 
        1, 
        4, 
        3, 
        137, 
        138, 
        4, 
        3, 
        139, 
        140, 
        4, 
        0, 
        141, 
        142, 
        1, 
        143, 
        144, 
        145, 
        2, 
        146, 
        147, 
        148, 
        1, 
        3, 
        4, 
        149, 
        150, 
        3, 
        4, 
        151, 
        152, 
        3, 
        2, 
        153, 
        154, 
        1, 
        155, 
        156, 
        157, 
        0, 
        158, 
        159, 
        160, 
        1, 
        4, 
        3, 
        161, 
        162, 
        4, 
        3, 
        163, 
        164, 
        4, 
        0, 
        165, 
        166, 
        1, 
        167, 
        168, 
        169, 
        2, 
        170, 
        171, 
        172, 
        1, 
        3, 
        4, 
        173, 
        174, 
        3, 
        4, 
        175, 
        176, 
        3, 
        2, 
        177, 
        178, 
        1, 
        179, 
        180, 
        181, 
        0, 
        182, 
        183, 
        184, 
        1, 
        4, 
        3, 
        185, 
        186, 
        4, 
        3, 
        187, 
        188, 
        4, 
        0, 
        189, 
        190, 
        1, 
        191, 
        192, 
        193, 
        2, 
        194, 
        195, 
        196, 
        1, 
        3, 
        4, 
        197, 
        198, 
        3, 
        4, 
        199, 
        200, 
        3, 
        2, 
        201, 
        202, 
        1, 
        203, 
        204, 
        205, 
        0, 
        206, 
        207, 
        208, 
        1, 
        4, 
        3, 
        209, 
        210, 
        4, 
        3, 
        211, 
        212, 
        4, 
        0, 
        213, 
        214, 
        1, 
        215, 
        216, 
        217, 
        2, 
        218, 
        219, 
        220, 
        1, 
        3, 
        4, 
        221, 
        222, 
        3, 
        4, 
        223, 
        224, 
        3, 
        2, 
        225, 
        226, 
        1, 
        227, 
        228, 
        229, 
        0, 
        230, 
        231, 
        232, 
        1, 
        4, 
        3, 
        233, 
        234, 
        4, 
        3, 
        235, 
        236, 
        4, 
        0, 
        237, 
        238, 
        1, 
        239, 
        240, 
        241, 
        2, 
        242, 
        243, 
        244, 
        1, 
        3, 
        4, 
        245, 
        246, 
        3, 
        4, 
        247, 
        248, 
        3, 
        2, 
        249, 
        250, 
        1, 
        251, 
        252, 
        253, 
        0, 
        254, 
        255, 
        256, 
        1, 
        4, 
        3, 
        257, 
        258, 
        4, 
        3, 
        259, 
        260, 
        4, 
        0, 
        261, 
        262, 
        1, 
        263, 
        264, 
        265, 
        2, 
        266, 
        267, 
        268, 
        1, 
        3, 
        4, 
        269, 
        270, 
        3, 
        4, 
        271, 
        272, 
        3, 
        2, 
        273, 
        274, 
        1, 
        275, 
        276, 
        277, 
        0, 
        278, 
        279, 
        280, 
        5, 
        3, 
        4, 
        281, 
        282, 
        3, 
        4, 
        283, 
        284, 
        3, 
        285, 
        286, 
        287, 
        6, 
        288, 
        289, 
        5, 
        290, 
        291, 
        292, 
        7, 
        293, 
        294, 
        295, 
        5, 
        4, 
        3, 
        296, 
        297, 
        4, 
        3, 
        298, 
        299, 
        4, 
        7, 
        300, 
        301, 
        5, 
        302, 
        303, 
        304, 
        6, 
        305, 
        306, 
        307, 
        5, 
        3, 
        4, 
        308, 
        309, 
        3, 
        4, 
        310, 
        311, 
        3, 
        312, 
        313, 
        6, 
        314, 
        315, 
        316, 
        317, 
        4, 
        318, 
        319, 
        3]], 
    "dltype": ["list_str", [
        "float32", 
        "float32", 
        "float32", 
        "float32", 
        "float32", 
        "float32", 
        "float32", 
        "float32", 
        "float32", 
        "float32", 
        "float32", 
        "float32", 
        "float32", 
        "float32", 
        "float32", 
        "float32", 
        "float32", 
        "float32", 
        "float32", 
        "float32", 
        "float32", 
        "float32", 
        "float32", 
        "float32", 
        "float32", 
        "float32", 
        "float32", 
        "float32", 
        "float32", 
        "float32", 
        "float32", 
        "float32", 
        "float32", 
        "float32", 
        "float32", 
        "float32", 
        "float32", 
        "float32", 
        "float32", 
        "float32", 
        "float32", 
        "float32", 
        "float32", 
        "float32", 
        "float32", 
        "float32", 
        "float32", 
        "float32", 
        "float32", 
        "float32", 
        "float32", 
        "float32", 
        "float32", 
        "float32", 
        "float32", 
        "float32", 
        "float32", 
        "float32", 
        "float32", 
        "float32", 
        "float32", 
        "float32", 
        "float32", 
        "float32", 
        "float32", 
        "float32", 
        "float32", 
        "float32", 
        "float32", 
        "float32", 
        "float32", 
        "float32", 
        "float32", 
        "float32", 
        "float32", 
        "float32", 
        "float32", 
        "float32", 
        "float32", 
        "float32", 
        "float32", 
        "float32", 
        "float32", 
        "float32", 
        "float32", 
        "float32", 
        "float32", 
        "float32", 
        "float32", 
        "float32", 
        "float32", 
        "float32", 
        "float32", 
        "float32", 
        "float32", 
        "float32", 
        "float32", 
        "float32", 
        "float32", 
        "float32", 
        "float32", 
        "float32", 
        "float32", 
        "float32", 
        "float32", 
        "float32", 
        "float32", 
        "float32", 
        "float32", 
        "float32", 
        "float32", 
        "float32", 
        "float32", 
        "float32", 
        "float32", 
        "float32", 
        "float32", 
        "float32", 
        "float32", 
        "float32", 
        "float32", 
        "float32", 
        "float32", 
        "float32", 
        "float32", 
        "float32", 
        "float32", 
        "float32", 
        "float32", 
        "float32", 
        "float32", 
        "float32", 
        "float32", 
        "float32", 
        "float32", 
        "float32", 
        "float32", 
        "float32", 
        "float32", 
        "float32", 
        "float32", 
        "float32", 
        "float32", 
        "float32", 
        "float32", 
        "float32", 
        "float32", 
        "float32", 
        "float32", 
        "float32", 
        "float32", 
        "float32", 
        "float32", 
        "float32", 
        "float32", 
        "float32", 
        "float32", 
        "float32", 
        "float32", 
        "float32", 
        "float32", 
        "float32", 
        "float32", 
        "float32", 
        "float32", 
        "float32", 
        "float32", 
        "float32", 
        "float32", 
        "float32", 
        "float32", 
        "float32", 
        "float32", 
        "float32", 
        "float32", 
        "float32", 
        "float32", 
        "float32", 
        "float32", 
        "float32", 
        "float32", 
        "float32", 
        "float32", 
        "float32", 
        "float32", 
        "float32", 
        "float32", 
        "float32", 
        "float32", 
        "float32", 
        "float32", 
        "float32", 
        "float32", 
        "float32", 
        "float32", 
        "float32", 
        "float32", 
        "float32", 
        "float32", 
        "float32", 
        "float32", 
        "float32", 
        "float32", 
        "float32", 
        "float32", 
        "float32", 
        "float32", 
        "float32", 
        "float32", 
        "float32", 
        "float32", 
        "float32", 
        "float32", 
        "float32", 
        "float32", 
        "float32", 
        "float32", 
        "float32", 
        "float32", 
        "float32", 
        "float32", 
        "float32", 
        "float32", 
        "float32", 
        "float32", 
        "float32", 
        "float32", 
        "float32", 
        "float32", 
        "float32", 
        "float32", 
        "float32", 
        "float32", 
        "float32", 
        "float32", 
        "float32", 
        "float32", 
        "float32", 
        "float32", 
        "float32", 
        "float32", 
        "float32", 
        "float32", 
        "float32", 
        "float32", 
        "float32", 
        "float32", 
        "float32", 
        "float32", 
        "float32", 
        "float32", 
        "float32", 
        "float32", 
        "float32", 
        "float32", 
        "float32", 
        "float32", 
        "float32", 
        "float32", 
        "float32", 
        "float32", 
        "float32", 
        "float32", 
        "float32", 
        "float32", 
        "float32", 
        "float32", 
        "float32", 
        "float32", 
        "float32", 
        "float32", 
        "float32", 
        "float32", 
        "float32", 
        "float32", 
        "float32", 
        "float32", 
        "float32", 
        "float32", 
        "float32", 
        "float32", 
        "float32", 
        "float32", 
        "float32", 
        "float32", 
        "float32", 
        "float32", 
        "float32", 
        "float32", 
        "float32", 
        "float32", 
        "float32", 
        "float32", 
        "float32", 
        "float32", 
        "float32", 
        "float32", 
        "float32", 
        "float32", 
        "float32", 
        "float32", 
        "float32", 
        "float32", 
        "float32", 
        "float32", 
        "float32", 
        "float32", 
        "float32", 
        "float32", 
        "float32", 
        "float32", 
        "float32", 
        "float32", 
        "float32", 
        "float32", 
        "float32", 
        "float32", 
        "float32", 
        "float32", 
        "float32", 
        "float32", 
        "float32", 
        "float32", 
        "float32", 
        "float32", 
        "float32", 
        "float32", 
        "float32", 
        "float32", 
        "float32", 
        "float32", 
        "float32", 
        "float32", 
        "float32", 
        "float32", 
        "float32", 
        "float32", 
        "float32", 
        "float32", 
        "float32", 
        "float32", 
        "float32", 
        "float32", 
        "float32", 
        "float32", 
        "float32", 
        "float32", 
        "float32", 
        "float32", 
        "float32", 
        "float32", 
        "float32", 
        "float32", 
        "float32", 
        "float32", 
        "float32", 
        "float32", 
        "float32", 
        "float32", 
        "float32", 
        "float32", 
        "float32", 
        "float32", 
        "float32", 
        "float32", 
        "float32", 
        "float32", 
        "float32", 
        "float32", 
        "float32", 
        "float32", 
        "float32", 
        "float32", 
        "float32", 
        "float32", 
        "float32", 
        "float32", 
        "float32", 
        "float32", 
        "float32", 
        "float32", 
        "float32", 
        "float32", 
        "float32", 
        "float32", 
        "float32", 
        "float32", 
        "float32", 
        "float32", 
        "float32", 
        "float32", 
        "float32", 
        "float32", 
        "float32", 
        "float32", 
        "float32", 
        "float32", 
        "float32", 
        "float32", 
        "float32", 
        "float32", 
        "float32", 
        "float32", 
        "float32", 
        "float32", 
        "float32", 
        "float32", 
        "float32", 
        "float32", 
        "float32", 
        "float32", 
        "float32", 
        "float32", 
        "float32", 
        "float32", 
        "float32", 
        "float32", 
        "float32", 
        "float32", 
        "float32", 
        "float32", 
        "float32", 
        "float32", 
        "float32", 
        "float32", 
        "float32", 
        "float32", 
        "float32", 
        "float32", 
        "float32", 
        "float32", 
        "float32", 
        "float32", 
        "float32", 
        "float32", 
        "float32", 
        "float32", 
        "float32", 
        "float32", 
        "float32", 
        "float32", 
        "float32", 
        "float32", 
        "float32", 
        "float32", 
        "float32", 
        "float32", 
        "float32", 
        "float32", 
        "float32", 
        "float32", 
        "float32", 
        "float32", 
        "float32", 
        "float32", 
        "float32", 
        "float32", 
        "float32", 
        "float32", 
        "float32", 
        "float32", 
        "float32", 
        "float32", 
        "float32", 
        "float32", 
        "float32", 
        "float32", 
        "float32", 
        "float32", 
        "float32", 
        "float32", 
        "float32", 
        "float32", 
        "float32", 
        "float32", 
        "float32", 
        "float32", 
        "float32", 
        "float32", 
        "float32", 
        "float32", 
        "float32", 
        "float32", 
        "float32", 
        "float32", 
        "float32", 
        "float32", 
        "float32", 
        "float32", 
        "float32", 
        "float32", 
        "float32", 
        "float32", 
        "float32", 
        "float32", 
        "float32", 
        "float32", 
        "float32", 
        "float32", 
        "float32", 
        "float32", 
        "float32", 
        "float32", 
        "float32", 
        "float32", 
        "float32", 
        "float32", 
        "float32", 
        "float32", 
        "float32", 
        "float32", 
        "float32", 
        "float32", 
        "float32", 
        "float32", 
        "float32", 
        "float32", 
        "float32", 
        "float32", 
        "float32", 
        "float32", 
        "float32", 
        "float32", 
        "float32", 
        "float32", 
        "float32", 
        "float32", 
        "float32", 
        "float32", 
        "float32", 
        "float32"]], 
    "dtype": ["list_int", [
        0, 
        0, 
        0, 
        0, 
        0, 
        0, 
        0, 
        0, 
        0, 
        0, 
        0, 
        0, 
        0, 
        0, 
        0, 
        0, 
        0, 
        0, 
        0, 
        0, 
        0, 
        0, 
        0, 
        0, 
        0, 
        0, 
        0, 
        0, 
        0, 
        0, 
        0, 
        0, 
        0, 
        0, 
        0, 
        0, 
        0, 
        0, 
        0, 
        0, 
        0, 
        0, 
        0, 
        0, 
        0, 
        0, 
        0, 
        0, 
        0, 
        0, 
        0, 
        0, 
        0, 
        0, 
        0, 
        0, 
        0, 
        0, 
        0, 
        0, 
        0, 
        0, 
        0, 
        0, 
        0, 
        0, 
        0, 
        0, 
        0, 
        0, 
        0, 
        0, 
        0, 
        0, 
        0, 
        0, 
        0, 
        0, 
        0, 
        0, 
        0, 
        0, 
        0, 
        0, 
        0, 
        0, 
        0, 
        0, 
        0, 
        0, 
        0, 
        0, 
        0, 
        0, 
        0, 
        0, 
        0, 
        0, 
        0, 
        0, 
        0, 
        0, 
        0, 
        0, 
        0, 
        0, 
        0, 
        0, 
        0, 
        0, 
        0, 
        0, 
        0, 
        0, 
        0, 
        0, 
        0, 
        0, 
        0, 
        0, 
        0, 
        0, 
        0, 
        0, 
        0, 
        0, 
        0, 
        0, 
        0, 
        0, 
        0, 
        0, 
        0, 
        0, 
        0, 
        0, 
        0, 
        0, 
        0, 
        0, 
        0, 
        0, 
        0, 
        0, 
        0, 
        0, 
        0, 
        0, 
        0, 
        0, 
        0, 
        0, 
        0, 
        0, 
        0, 
        0, 
        0, 
        0, 
        0, 
        0, 
        0, 
        0, 
        0, 
        0, 
        0, 
        0, 
        0, 
        0, 
        0, 
        0, 
        0, 
        0, 
        0, 
        0, 
        0, 
        0, 
        0, 
        0, 
        0, 
        0, 
        0, 
        0, 
        0, 
        0, 
        0, 
        0, 
        0, 
        0, 
        0, 
        0, 
        0, 
        0, 
        0, 
        0, 
        0, 
        0, 
        0, 
        0, 
        0, 
        0, 
        0, 
        0, 
        0, 
        0, 
        0, 
        0, 
        0, 
        0, 
        0, 
        0, 
        0, 
        0, 
        0, 
        0, 
        0, 
        0, 
        0, 
        0, 
        0, 
        0, 
        0, 
        0, 
        0, 
        0, 
        0, 
        0, 
        0, 
        0, 
        0, 
        0, 
        0, 
        0, 
        0, 
        0, 
        0, 
        0, 
        0, 
        0, 
        0, 
        0, 
        0, 
        0, 
        0, 
        0, 
        0, 
        0, 
        0, 
        0, 
        0, 
        0, 
        0, 
        0, 
        0, 
        0, 
        0, 
        0, 
        0, 
        0, 
        0, 
        0, 
        0, 
        0, 
        0, 
        0, 
        0, 
        0, 
        0, 
        0, 
        0, 
        0, 
        0, 
        0, 
        0, 
        0, 
        0, 
        0, 
        0, 
        0, 
        0, 
        0, 
        0, 
        0, 
        0, 
        0, 
        0, 
        0, 
        0, 
        0, 
        0, 
        0, 
        0, 
        0, 
        0, 
        0, 
        0, 
        0, 
        0, 
        0, 
        0, 
        0, 
        0, 
        0, 
        0, 
        0, 
        0, 
        0, 
        0, 
        0, 
        0, 
        0, 
        0, 
        0, 
        0, 
        0, 
        0, 
        0, 
        0, 
        0, 
        0, 
        0, 
        0, 
        0, 
        0, 
        0, 
        0, 
        0, 
        0, 
        0, 
        0, 
        0, 
        0, 
        0, 
        0, 
        0, 
        0, 
        0, 
        0, 
        0, 
        0, 
        0, 
        0, 
        0, 
        0, 
        0, 
        0, 
        0, 
        0, 
        0, 
        0, 
        0, 
        0, 
        0, 
        0, 
        0, 
        0, 
        0, 
        0, 
        0, 
        0, 
        0, 
        0, 
        0, 
        0, 
        0, 
        0, 
        0, 
        0, 
        0, 
        0, 
        0, 
        0, 
        0, 
        0, 
        0, 
        0, 
        0, 
        0, 
        0, 
        0, 
        0, 
        0, 
        0, 
        0, 
        0, 
        0, 
        0, 
        0, 
        0, 
        0, 
        0, 
        0, 
        0, 
        0, 
        0, 
        0, 
        0, 
        0, 
        0, 
        0, 
        0, 
        0, 
        0, 
        0, 
        0, 
        0, 
        0, 
        0, 
        0, 
        0, 
        0, 
        0, 
        0, 
        0, 
        0, 
        0, 
        0, 
        0, 
        0, 
        0, 
        0, 
        0, 
        0, 
        0, 
        0, 
        0, 
        0, 
        0, 
        0, 
        0, 
        0, 
        0, 
        0, 
        0, 
        0, 
        0, 
        0, 
        0, 
        0, 
        0, 
        0, 
        0, 
        0, 
        0, 
        0, 
        0, 
        0, 
        0, 
        0, 
        0, 
        0, 
        0, 
        0, 
        0, 
        0, 
        0, 
        0, 
        0, 
        0, 
        0, 
        0, 
        0, 
        0, 
        0, 
        0, 
        0, 
        0, 
        0, 
        0, 
        0, 
        0, 
        0, 
        0, 
        0, 
        0, 
        0, 
        0, 
        0, 
        0, 
        0, 
        0, 
        0, 
        0, 
        0, 
        0, 
        0, 
        0, 
        0, 
        0, 
        0, 
        0, 
        0, 
        0, 
        0, 
        0, 
        0, 
        0, 
        0, 
        0, 
        0, 
        0, 
        0, 
        0, 
        0, 
        0, 
        0, 
        0, 
        0, 
        0, 
        0, 
        0, 
        0, 
        0, 
        0, 
        0, 
        0, 
        0, 
        0, 
        0, 
        0, 
        0, 
        0, 
        0, 
        0, 
        0, 
        0, 
        0, 
        0, 
        0, 
        0, 
        0, 
        0]], 
    "shape": ["list_shape", [
        [1, 3, 160, 160], 
        [64, 3, 3, 3], 
        [64, 1, 1], 
        [64, 1, 1], 
        [1, 64, 160, 160], 
        [64, 1, 1], 
        [64, 1, 1], 
        [1, 64, 160, 160], 
        [64, 64, 3, 3], 
        [64, 1, 1], 
        [64, 1, 1], 
        [1, 64, 160, 160], 
        [64, 64, 3, 3], 
        [64, 1, 1], 
        [64, 1, 1], 
        [1, 64, 80, 80], 
        [1, 64, 1, 1], 
        [1, 64], 
        [4, 64], 
        [4], 
        [1, 4], 
        [1, 4], 
        [64, 4], 
        [64], 
        [1, 64], 
        [64, 64, 1, 1], 
        [64, 1, 1], 
        [64, 1, 1], 
        [1, 64, 80, 80], 
        [64, 1, 1], 
        [64, 1, 1], 
        [1, 64, 80, 80], 
        [64, 64, 3, 3], 
        [64, 1, 1], 
        [64, 1, 1], 
        [1, 64, 80, 80], 
        [64, 64, 3, 3], 
        [64, 1, 1], 
        [64, 1, 1], 
        [1, 64, 80, 80], 
        [1, 64, 1, 1], 
        [1, 64], 
        [4, 64], 
        [4], 
        [1, 4], 
        [1, 4], 
        [64, 4], 
        [64], 
        [1, 64], 
        [1, 64, 80, 80], 
        [64, 1, 1], 
        [64, 1, 1], 
        [1, 64, 80, 80], 
        [64, 64, 3, 3], 
        [64, 1, 1], 
        [64, 1, 1], 
        [1, 64, 80, 80], 
        [64, 64, 3, 3], 
        [64, 1, 1], 
        [64, 1, 1], 
        [1, 64, 80, 80], 
        [1, 64, 1, 1], 
        [1, 64], 
        [4, 64], 
        [4], 
        [1, 4], 
        [1, 4], 
        [64, 4], 
        [64], 
        [1, 64], 
        [1, 64, 80, 80], 
        [64, 1, 1], 
        [64, 1, 1], 
        [1, 64, 80, 80], 
        [128, 64, 3, 3], 
        [128, 1, 1], 
        [128, 1, 1], 
        [1, 128, 80, 80], 
        [128, 128, 3, 3], 
        [128, 1, 1], 
        [128, 1, 1], 
        [1, 128, 40, 40], 
        [1, 128, 1, 1], 
        [1, 128], 
        [8, 128], 
        [8], 
        [1, 8], 
        [1, 8], 
        [128, 8], 
        [128], 
        [1, 128], 
        [128, 64, 1, 1], 
        [128, 1, 1], 
        [128, 1, 1], 
        [1, 128, 40, 40], 
        [128, 1, 1], 
        [128, 1, 1], 
        [1, 128, 40, 40], 
        [128, 128, 3, 3], 
        [128, 1, 1], 
        [128, 1, 1], 
        [1, 128, 40, 40], 
        [128, 128, 3, 3], 
        [128, 1, 1], 
        [128, 1, 1], 
        [1, 128, 40, 40], 
        [1, 128, 1, 1], 
        [1, 128], 
        [8, 128], 
        [8], 
        [1, 8], 
        [1, 8], 
        [128, 8], 
        [128], 
        [1, 128], 
        [1, 128, 40, 40], 
        [128, 1, 1], 
        [128, 1, 1], 
        [1, 128, 40, 40], 
        [128, 128, 3, 3], 
        [128, 1, 1], 
        [128, 1, 1], 
        [1, 128, 40, 40], 
        [128, 128, 3, 3], 
        [128, 1, 1], 
        [128, 1, 1], 
        [1, 128, 40, 40], 
        [1, 128, 1, 1], 
        [1, 128], 
        [8, 128], 
        [8], 
        [1, 8], 
        [1, 8], 
        [128, 8], 
        [128], 
        [1, 128], 
        [1, 128, 40, 40], 
        [128, 1, 1], 
        [128, 1, 1], 
        [1, 128, 40, 40], 
        [128, 128, 3, 3], 
        [128, 1, 1], 
        [128, 1, 1], 
        [1, 128, 40, 40], 
        [128, 128, 3, 3], 
        [128, 1, 1], 
        [128, 1, 1], 
        [1, 128, 40, 40], 
        [1, 128, 1, 1], 
        [1, 128], 
        [8, 128], 
        [8], 
        [1, 8], 
        [1, 8], 
        [128, 8], 
        [128], 
        [1, 128], 
        [1, 128, 40, 40], 
        [128, 1, 1], 
        [128, 1, 1], 
        [1, 128, 40, 40], 
        [256, 128, 3, 3], 
        [256, 1, 1], 
        [256, 1, 1], 
        [1, 256, 40, 40], 
        [256, 256, 3, 3], 
        [256, 1, 1], 
        [256, 1, 1], 
        [1, 256, 20, 20], 
        [1, 256, 1, 1], 
        [1, 256], 
        [16, 256], 
        [16], 
        [1, 16], 
        [1, 16], 
        [256, 16], 
        [256], 
        [1, 256], 
        [256, 128, 1, 1], 
        [256, 1, 1], 
        [256, 1, 1], 
        [1, 256, 20, 20], 
        [256, 1, 1], 
        [256, 1, 1], 
        [1, 256, 20, 20], 
        [256, 256, 3, 3], 
        [256, 1, 1], 
        [256, 1, 1], 
        [1, 256, 20, 20], 
        [256, 256, 3, 3], 
        [256, 1, 1], 
        [256, 1, 1], 
        [1, 256, 20, 20], 
        [1, 256, 1, 1], 
        [1, 256], 
        [16, 256], 
        [16], 
        [1, 16], 
        [1, 16], 
        [256, 16], 
        [256], 
        [1, 256], 
        [1, 256, 20, 20], 
        [256, 1, 1], 
        [256, 1, 1], 
        [1, 256, 20, 20], 
        [256, 256, 3, 3], 
        [256, 1, 1], 
        [256, 1, 1], 
        [1, 256, 20, 20], 
        [256, 256, 3, 3], 
        [256, 1, 1], 
        [256, 1, 1], 
        [1, 256, 20, 20], 
        [1, 256, 1, 1], 
        [1, 256], 
        [16, 256], 
        [16], 
        [1, 16], 
        [1, 16], 
        [256, 16], 
        [256], 
        [1, 256], 
        [1, 256, 20, 20], 
        [256, 1, 1], 
        [256, 1, 1], 
        [1, 256, 20, 20], 
        [256, 256, 3, 3], 
        [256, 1, 1], 
        [256, 1, 1], 
        [1, 256, 20, 20], 
        [256, 256, 3, 3], 
        [256, 1, 1], 
        [256, 1, 1], 
        [1, 256, 20, 20], 
        [1, 256, 1, 1], 
        [1, 256], 
        [16, 256], 
        [16], 
        [1, 16], 
        [1, 16], 
        [256, 16], 
        [256], 
        [1, 256], 
        [1, 256, 20, 20], 
        [256, 1, 1], 
        [256, 1, 1], 
        [1, 256, 20, 20], 
        [256, 256, 3, 3], 
        [256, 1, 1], 
        [256, 1, 1], 
        [1, 256, 20, 20], 
        [256, 256, 3, 3], 
        [256, 1, 1], 
        [256, 1, 1], 
        [1, 256, 20, 20], 
        [1, 256, 1, 1], 
        [1, 256], 
        [16, 256], 
        [16], 
        [1, 16], 
        [1, 16], 
        [256, 16], 
        [256], 
        [1, 256], 
        [1, 256, 20, 20], 
        [256, 1, 1], 
        [256, 1, 1], 
        [1, 256, 20, 20], 
        [256, 256, 3, 3], 
        [256, 1, 1], 
        [256, 1, 1], 
        [1, 256, 20, 20], 
        [256, 256, 3, 3], 
        [256, 1, 1], 
        [256, 1, 1], 
        [1, 256, 20, 20], 
        [1, 256, 1, 1], 
        [1, 256], 
        [16, 256], 
        [16], 
        [1, 16], 
        [1, 16], 
        [256, 16], 
        [256], 
        [1, 256], 
        [1, 256, 20, 20], 
        [256, 1, 1], 
        [256, 1, 1], 
        [1, 256, 20, 20], 
        [256, 256, 3, 3], 
        [256, 1, 1], 
        [256, 1, 1], 
        [1, 256, 20, 20], 
        [256, 256, 3, 3], 
        [256, 1, 1], 
        [256, 1, 1], 
        [1, 256, 20, 20], 
        [1, 256, 1, 1], 
        [1, 256], 
        [16, 256], 
        [16], 
        [1, 16], 
        [1, 16], 
        [256, 16], 
        [256], 
        [1, 256], 
        [1, 256, 20, 20], 
        [256, 1, 1], 
        [256, 1, 1], 
        [1, 256, 20, 20], 
        [256, 256, 3, 3], 
        [256, 1, 1], 
        [256, 1, 1], 
        [1, 256, 20, 20], 
        [256, 256, 3, 3], 
        [256, 1, 1], 
        [256, 1, 1], 
        [1, 256, 20, 20], 
        [1, 256, 1, 1], 
        [1, 256], 
        [16, 256], 
        [16], 
        [1, 16], 
        [1, 16], 
        [256, 16], 
        [256], 
        [1, 256], 
        [1, 256, 20, 20], 
        [256, 1, 1], 
        [256, 1, 1], 
        [1, 256, 20, 20], 
        [256, 256, 3, 3], 
        [256, 1, 1], 
        [256, 1, 1], 
        [1, 256, 20, 20], 
        [256, 256, 3, 3], 
        [256, 1, 1], 
        [256, 1, 1], 
        [1, 256, 20, 20], 
        [1, 256, 1, 1], 
        [1, 256], 
        [16, 256], 
        [16], 
        [1, 16], 
        [1, 16], 
        [256, 16], 
        [256], 
        [1, 256], 
        [1, 256, 20, 20], 
        [256, 1, 1], 
        [256, 1, 1], 
        [1, 256, 20, 20], 
        [256, 256, 3, 3], 
        [256, 1, 1], 
        [256, 1, 1], 
        [1, 256, 20, 20], 
        [256, 256, 3, 3], 
        [256, 1, 1], 
        [256, 1, 1], 
        [1, 256, 20, 20], 
        [1, 256, 1, 1], 
        [1, 256], 
        [16, 256], 
        [16], 
        [1, 16], 
        [1, 16], 
        [256, 16], 
        [256], 
        [1, 256], 
        [1, 256, 20, 20], 
        [256, 1, 1], 
        [256, 1, 1], 
        [1, 256, 20, 20], 
        [256, 256, 3, 3], 
        [256, 1, 1], 
        [256, 1, 1], 
        [1, 256, 20, 20], 
        [256, 256, 3, 3], 
        [256, 1, 1], 
        [256, 1, 1], 
        [1, 256, 20, 20], 
        [1, 256, 1, 1], 
        [1, 256], 
        [16, 256], 
        [16], 
        [1, 16], 
        [1, 16], 
        [256, 16], 
        [256], 
        [1, 256], 
        [1, 256, 20, 20], 
        [256, 1, 1], 
        [256, 1, 1], 
        [1, 256, 20, 20], 
        [256, 256, 3, 3], 
        [256, 1, 1], 
        [256, 1, 1], 
        [1, 256, 20, 20], 
        [256, 256, 3, 3], 
        [256, 1, 1], 
        [256, 1, 1], 
        [1, 256, 20, 20], 
        [1, 256, 1, 1], 
        [1, 256], 
        [16, 256], 
        [16], 
        [1, 16], 
        [1, 16], 
        [256, 16], 
        [256], 
        [1, 256], 
        [1, 256, 20, 20], 
        [256, 1, 1], 
        [256, 1, 1], 
        [1, 256, 20, 20], 
        [256, 256, 3, 3], 
        [256, 1, 1], 
        [256, 1, 1], 
        [1, 256, 20, 20], 
        [256, 256, 3, 3], 
        [256, 1, 1], 
        [256, 1, 1], 
        [1, 256, 20, 20], 
        [1, 256, 1, 1], 
        [1, 256], 
        [16, 256], 
        [16], 
        [1, 16], 
        [1, 16], 
        [256, 16], 
        [256], 
        [1, 256], 
        [1, 256, 20, 20], 
        [256, 1, 1], 
        [256, 1, 1], 
        [1, 256, 20, 20], 
        [256, 256, 3, 3], 
        [256, 1, 1], 
        [256, 1, 1], 
        [1, 256, 20, 20], 
        [256, 256, 3, 3], 
        [256, 1, 1], 
        [256, 1, 1], 
        [1, 256, 20, 20], 
        [1, 256, 1, 1], 
        [1, 256], 
        [16, 256], 
        [16], 
        [1, 16], 
        [1, 16], 
        [256, 16], 
        [256], 
        [1, 256], 
        [1, 256, 20, 20], 
        [256, 1, 1], 
        [256, 1, 1], 
        [1, 256, 20, 20], 
        [512, 256, 3, 3], 
        [512, 1, 1], 
        [512, 1, 1], 
        [1, 512, 20, 20], 
        [512, 512, 3, 3], 
        [512, 1, 1], 
        [512, 1, 1], 
        [1, 512, 10, 10], 
        [1, 512, 1, 1], 
        [1, 512], 
        [32, 512], 
        [32], 
        [1, 32], 
        [1, 32], 
        [512, 32], 
        [512], 
        [1, 512], 
        [512, 256, 1, 1], 
        [512, 1, 1], 
        [512, 1, 1], 
        [1, 512, 10, 10], 
        [512, 1, 1], 
        [512, 1, 1], 
        [1, 512, 10, 10], 
        [512, 512, 3, 3], 
        [512, 1, 1], 
        [512, 1, 1], 
        [1, 512, 10, 10], 
        [512, 512, 3, 3], 
        [512, 1, 1], 
        [512, 1, 1], 
        [1, 512, 10, 10], 
        [1, 512, 1, 1], 
        [1, 512], 
        [32, 512], 
        [32], 
        [1, 32], 
        [1, 32], 
        [512, 32], 
        [512], 
        [1, 512], 
        [1, 512, 10, 10], 
        [512, 1, 1], 
        [512, 1, 1], 
        [1, 512, 10, 10], 
        [512, 512, 3, 3], 
        [512, 1, 1], 
        [512, 1, 1], 
        [1, 512, 10, 10], 
        [512, 512, 3, 3], 
        [512, 1, 1], 
        [512, 1, 1], 
        [1, 512, 10, 10], 
        [1, 512, 1, 1], 
        [1, 512], 
        [32, 512], 
        [32], 
        [1, 32], 
        [1, 32], 
        [512, 32], 
        [512], 
        [1, 512], 
        [512, 1, 1], 
        [512, 1, 1], 
        [1, 51200], 
        [512, 51200], 
        [512], 
        [512], 
        [512], 
        [512], 
        [512], 
        [512], 
        [1, 512]]]
  }
}